model/cnn.pt (torch, 799319 bytes, 6 tensors)

conv1.weight f4 [12, 1, 3, 3]
0.19269596 0.22684716 -0.2942193 -0.1600572 0.016541936 0.0678735 0.27651218 -0.28687027
0.30405703 0.12551829 -0.060955007 0.24624494 -0.057509553 -0.28244105 0.23427144 -0.07032206
-0.25784978 0.092163734 -0.13843478 0.10159701 -0.0013854777 0.11301897 -0.24535726 -0.13352634
0.010711943 -0.14551702 0.23176776 0.0345214 0.3494269 0.17178415 -0.21236596 -0.083174154
-0.14607702 0.08991056 -0.16197436 -0.279806 -0.21752928 0.10850527 0.08156687 0.106701665
-0.26374093 -0.16821197 0.32083586 -0.2075412 -0.106300354 0.33391213 0.28133965 0.09686613
-0.093889944 0.10496469 -0.25232014 -0.17758867 0.14039913 -0.08713768 -0.19619448 0.011511018
0.04209995 -0.26300603 -0.2438473 -0.335623 -0.015904998 0.07495222 0.33793086 -0.27427715
0.16628438 0.2456296 0.2584915 -0.15725493 -0.13969456 0.27910244 -0.07149349 0.18588974
-0.12691253 -0.21511824 -0.16037679 -0.03463274 0.2137894 0.2688368 0.07171582 -0.2241982
0.03760971 0.19567539 -0.15927336 -0.27142704 -0.33331153 0.3248957 0.22874346 -0.29045412
0.30212986 0.2779202 -0.23041713 -0.21302609 0.12210432 0.28959796 0.2175965 -0.21951899
-0.10211046 -0.30466384 -0.2352774 0.28309807 0.1456152 -0.2101728 -0.12424229 0.30181554
-0.2906129 0.1525271 -0.15305859 -0.124139085
00000000: 1752 453e 9f4a 683e e9a3 96be 09e6 23be
00000010: f482 873c 4301 8b3d 0193 8d3e a9e0 92be
00000020: 5dad 9b3e de87 003e f5ab 79bd a227 7c3e
00000030: 238f 6bbd 1d9c 90be dae4 6f3e 0305 90bd
00000040: e304 84be 57c0 bc3d d9c1 0dbe 1812 d03d
00000050: eb98 b5ba 7d76 e73d ef3e 7bbe 21bb 08be
00000060: 2581 2f3c 6a02 15be 8754 6d3e 5066 0d3d
00000070: 15e8 b23e 2fe8 2f3e 7676 59be 3657 aabd
00000080: 3795 15be 0723 b83d 9bdc 25be bb42 8fbe
00000090: ffbf 5ebe 0338 de3d 880c a73d 6786 da3d
000000a0: 0d09 87be c23f 2cbe 9944 a43e ae85 54be
000000b0: 00b4 d9bd 88f6 aa3e c00b 903e c061 c63d
000000c0: 5f49 c0bd baf7 d63d 1b30 81be ced9 35be
000000d0: cac4 0f3e 3d75 b2bd 35e7 48be b598 3c3c
000000e0: ff70 2c3d baa8 86be 1bb3 79be c7d6 abbe
000000f0: 334b 82bc 8d80 993d 4605 ad3e 0e6e 8cbe
00000100: 7446 2a3e 5386 7b3e ff58 843e 7007 21be
00000110: 170c 0fbe 84e6 8e3e 2e6b 92bd e159 3e3e
00000120: 5cf5 01be f547 5cbe d039 24be 0fdb 0dbd
00000130: 9ceb 5a3e faa4 893e bedf 923d 3794 65be
00000140: a40c 1a3d 215f 483e 8e18 23be 7cf8 8abe
00000150: cfa7 aabe bb58 a63e ba3b 6a3e 67b6 94be
00000160: c4b0 9a3e 8e4b 8e3e 78f2 6bbe 8323 5abe
00000170: d411 fa3d 2f46 943e 9ed1 5e3e 96c9 60be
00000180: 4a1f d1bd e6fc 9bbe 8fec 70be 3bf2 903e
00000190: 271c 153e 8a37 57be be72 febd 9187 9a3e
000001a0: 37cb 94be 1030 1c3e 64bb 1cbe a23c febd

conv1.bias f4 [12]
-0.14880241 0.23828363 -0.1401406 0.006569176 0.16158867 -0.12842089 -0.32146117 -0.17916669
-0.13677454 -0.27561063 0.10903877 -0.15018539
00000000: a95f 18be a000 743e 0481 0fbe 3e42 d73b
00000010: 8077 253e c480 03be 8f96 a4be 7977 37be
00000020: a00e 0cbe d61c 8dbe b84f df3d 33ca 19be

conv2.weight f4 [24, 12, 3, 3]
-0.017322686 -0.07977153 0.0031153709 -0.017181981 -0.011468575 0.026741259 0.09644948 0.08661082
0.046142116 -0.018768782 0.06269209 0.049071476 -0.054767296 0.016334193 0.030970214 -0.015128368
-0.055849962 -0.038131222 0.009233274 -0.064852595 0.08625875 -0.041722313 0.0072816145 0.019481579
-0.041316517 0.03500252 -0.05215828 0.034582563 0.06370406 0.108773 -0.0044799927 -0.034344673
0.023243573 0.03283797 0.011284938 -0.017502394 0.11062408 0.027643234 -0.02371891 -0.08322814
-0.0042929687 0.07691041 0.06883875 0.00043876132 0.056403186 -0.004579176 -0.034061454 -0.054110177
-0.065156706 0.015775193 0.068653665 0.03460216 0.033907205 0.07626306 -0.04715474 0.07728363
-0.085953034 0.05150238 0.032979175 0.055444695 -0.02676139 -0.0801494 -0.053209394 -0.094976306
-0.06699627 0.030950312 0.07097537 0.029654097 -0.053170778 0.02733539 -0.009727184 0.07750327
0.0037684138 -0.03847094 -0.037774686 0.04238784 0.06949867 0.07920329 0.0025183503 -0.016330192
0.006258402 0.088488735 -0.024124773 -0.00850214 0.059369024 0.020928912 0.11431446 -0.035291765
0.10156696 0.019103246 0.047941253 -0.048406404 -0.054368805 -0.072152056 0.077040575 0.07251261
-0.07784727 0.07910546 0.09766295 0.08119245 0.051499564 -0.03617175 0.0006512195 0.06596405
0.004316013 0.09310643 0.029611437 0.061067 -0.063729234 -0.09347223 0.07959513 -0.0139444675
-0.06220488 -0.04570084 -0.087425515 -0.09103547 -0.1146846 0.07224506 0.017246589 -0.09182519
-0.025559023 -0.087495804 -0.01812251 -0.07995838 0.054616723 0.019969204 0.006371861 0.08066212
-0.09502442 -0.0016658752 0.012981865 -0.09128382 -0.07339757 0.0012943911 -0.024691833 -0.06216808
-0.10421721 0.06388616 0.05901203 -0.08981405 0.050405975 -0.05583112 -0.07463992 -0.10016176
-0.004247551 0.027133273 -0.05756913 0.053057015 0.08209231 0.059031222 0.041263126 -0.024547106
0.0767391 0.010352988 0.021379206 0.0053589046 -0.023766024 0.020498367 -0.077411704 -0.050620526
0.051728066 -0.09594866 0.004778076 0.062081728 0.06698205 0.09490364 0.069485664 -0.018142361
0.039274517 -0.05556035 -0.0064639635 0.06276899 -0.009288776 -0.07117432 0.011877226 -0.08512832
0.052890602 -0.0040514553 -0.09627615 0.039902654 -0.08479438 -0.0734287 0.076187775 -0.07017654
0.0455543 0.03374005 -0.06468854 0.021563295 0.05642712 -0.04060772 0.07271704 0.034190916
-0.055251747 -0.03147503 -0.08698027 -0.08650272 -0.01639573 -0.0048726755 -0.07996993 -0.0024727702
0.0659122 -0.026323365 -0.052114803 0.020194357 0.06969628 -0.055939037 0.07314453 0.035334356
0.057890322 -0.09579421 -0.070452236 0.048661586 -0.0036633878 -0.054727916 0.04129073 0.08858381
-0.05098669 0.07589502 -0.007119985 0.07682843 0.051889706 0.051840626 0.060710765 -0.059688795
-0.008676852 -0.044354476 -0.06064229 -0.04311871 -0.06999039 0.070142575 0.020789899 -0.006574864
-0.069833525 0.06632183 0.07792323 0.06979363 0.08016537 -0.02825513 0.005510411 0.02889112
-0.048746984 0.0025441868 0.10687861 0.04580177 0.07940986 -0.019398697 -0.014445023 -0.06211109
0.008083882 0.010922232 0.1024764 -0.017377725 -0.06869451 0.03093582 -0.10655552 0.027369611
00000000: 4ee8 8dbc 425f a3bd 402b 4c3b 3ac1 8cbc
00000010: b1e6 3bbc 7c10 db3c 4e87 c53d 0361 b13d
00000020: 84ff 3c3d fdc0 99bc b664 803d 2cff 483d
00000030: ac53 60bd 49cf 853c 3fb5 fd3c f9dc 77bc
00000040: eec2 64bd 7c2f 1cbd 2847 173c 70d1 84bd
00000050: 6da8 b03d 04e5 2abd 9c9a ee3b d597 9f3c
00000060: 823b 29bd cd5e 0f3d eca3 55bd 72a6 0d3d
00000070: 4677 823d 61c4 de3d e7cc 92bb 00ad 0cbd
00000080: 4e69 be3c 1b81 063d 76e4 383c 2e61 8fbc
00000090: e18e e23d 1074 e23c 294e c2bc 8473 aabd
000000a0: 08ac 8cbb 3483 9d3d 55fb 8c3d 8c09 e639
000000b0: 0707 673d ea0c 96bb 0684 0bbd a2a2 5dbd
000000c0: e170 85bd fa3a 813c 4b9a 8c3d ffba 0d3d
000000d0: 48e2 0a3d cf2f 9c3d 5425 41bd e146 9e3d
000000e0: 2508 b0bd 29f4 523d 2c15 073d fa19 633d
000000f0: b43a dbbc 5e25 a4bd 18f2 59bd f082 c2bd
00000100: 5735 89bd 828b fd3c 895b 913d 26ed f23c
00000110: 9ac9 59bd 78ee df3c c45e 1fbc 09ba 9e3d
00000120: 7ef7 763b b493 1dbd a1b9 1abd df9e 2d3d
00000130: 5255 8e3d 5635 a23d e80a 253b e5c6 85bc
00000140: 4813 cd3b 9539 b53d 51a1 c5bc 8f4c 0bbc
00000150: ef2c 733d 1c73 ab3c b31d ea3d 198e 10bd
00000160: 5702 d03d 697e 9c3c 0c5e 443d cb45 46bd
00000170: d3b1 5ebd 75c4 93bd 73c7 9d3d 7e81 943d
00000180: 646e 9fbd 0b02 a23d 8303 c83d 3a48 a63d
00000190: 35f1 523d d428 14bd 9ab6 2a3a 2918 873d
000001a0: 576d 8d3b 95ae be3d af93 f23c 6421 7a3d
000001b0: 7984 82bd 5e6e bfbd c602 a33d 5677 64bc
000001c0: 8bca 7ebd ce30 3bbd 260c b3bd ce70 babd
000001d0: c2df eabd 38f5 933d b848 8d3c d80e bcbd
000001e0: 2861 d1bc 0031 b3bd a875 94bc 38c1 a3bd
000001f0: c9b5 5f3d 7596 a33c 0bcb d03b 2e32 a53d
00000200: 2a9c c2bd 7f59 daba e3b1 543c 03f3 babd
00000210: 7751 96bd 8fa8 a93a 8746 cabc f5a3 7ebd
00000220: d56f d5bd bfd6 823d 99b6 713d 6ef0 b7bd
00000230: 7f76 4e3d 2caf 64bd d0dc 98bd 9c21 cdbd
00000240: 0a2f 8bbb 9946 de3c 9ccd 6bbd 5052 593d
00000250: 0320 a83d b9ca 713d 8603 293d 0317 c9bc
00000260: 6429 9d3d 949f 293c 7223 af3c c099 af3b
00000270: f7b0 c2bc 31ec a73c 078a 9ebd 7857 4fbd
00000280: cfe0 533d bb80 c4bd 6891 9c3b 6949 7e3d
00000290: e32d 893d d75c c23d 804e 8e3d 4a9f 94bc
000002a0: 51de 203d 4093 63bd a8cf d3bb 078d 803d
000002b0: f32f 18bc d8c3 91bd b298 423c c257 aebd
000002c0: d1a3 583d 12c2 84bb 6e2c c5bd f770 233d
000002d0: ada8 adbd c961 96bd 5608 9c3d b8b8 8fbd
000002e0: 2597 3a3d 0233 0a3d 6d7b 84bd 82a5 b03c
000002f0: 2020 673d 4854 26bd acec 943d c60b 0c3d
00000300: a84f 62bd f6eb 00bd b622 b2bd 5728 b1bd
00000310: 5750 86bc f7aa 9fbb 46c7 a3bd 330e 22bb
00000320: fafc 863d 19a4 d7bc 5576 55bd a36e a53c
00000330: ecbc 8e3d 5520 65bd cdcc 953d c2ba 103d
00000340: 671e 6d3d c12f c4bd 4349 90bd 5f51 473d
00000350: 7315 70bb 612a 60bd 7820 293d 6e6b b53d
00000360: 6bd7 50bd d96e 9b3d c34e e9bb 3958 9d3d
00000370: 4d8a 543d d656 543d daab 783d 3d7c 74bd
00000380: 5b29 0ebc 0aad 35bd 0d64 78bd 3f9d 30bd
00000390: 1f57 8fbd e9a6 8f3d 944f aa3c f571 d7bb
000003a0: e104 8fbd bdd3 873d 3796 9f3d f6ef 8e3d
000003b0: be2d a43d 4d77 e7bc ae90 b43b 12ad ec3c
000003c0: ebaa 47bd 5fbc 263b 2ce3 da3d a39a 3b3d
000003d0: a3a1 a23d 04ea 9ebc d1aa 6cbc 3368 7ebd
000003e0: 4272 043c 29f3 323c 26df d13d bb5b 8ebc
000003f0: b5af 8cbd 1e6d fd3c c839 dabd 3c36 e03c

conv2.bias f4 [24]
-0.045564197 0.028857252 0.0635922 -0.061909165 -0.073195286 -0.083639964 0.009571859 0.061369326
-0.0916445 0.06529257 0.078066096 -0.0045971205 -0.006918201 -0.033691343 -0.030434927 -0.013759021
0.035247575 -0.07143952 -0.0015635911 -0.07983286 0.07072168 -0.0061418447 -0.016098771 -0.06270802
00000000: 86a1 3abd 0b66 ec3c a13c 823d 7794 7dbd
00000010: 69e7 95bd 6e4b abbd 49d3 1c3c 675e 7b3d
00000020: 1db0 bbbd 1cb8 853d 1ee1 9f3d 71a3 96bb
00000030: 14b2 e2bb efff 09bd ab52 f9bc 846d 61bc
00000040: c35f 103d e24e 92bd 69f1 ccba 697f a3bd
00000050: 87d6 903d 8741 c9bb 92e1 83bc 106d 80bd

fc.weight f4 [2, 98304]
-0.00078842806 0.00015255381 6.627169e-05 -0.0032094468 -0.0002718621 -0.0027517409 -0.000724889 -0.00034119684
0.003346981 -0.000110266155 0.0030092478 -0.0003202485 -0.0014418146 0.00050881354 -0.0051179035 -0.0035060004
0.002785967 -0.0029074962 -0.001700996 0.0057882094 -0.0069483486 -0.0020335861 -0.004378693 -0.0005596684
-0.0032369785 -0.0066589266 -0.0017636706 -0.005186369 0.0019650394 0.003164272 -0.0015173374 -0.0013341875
0.0030950943 0.0025516534 -0.0013873907 0.0030761082 -0.0036311396 -0.0002671613 0.00018610847 -0.0021504534
0.0022314573 0.0010478384 0.0030668804 -9.9721925e-05 -0.003279121 0.0033232754 0.0031565404 -0.00430777
-0.0025239876 -0.0045788507 0.0037843618 0.0009949254 -0.002584384 -0.0012363017 0.002055966 -0.0016432008
-0.00073281396 -0.00064907986 -0.00040467945 -0.0029221512 0.0022208367 -0.0007039262 -0.0013541391 -0.0030983568
0.00054562825 -0.00257043 0.0014772327 0.0008625909 0.0042555854 -0.008611922 0.004765969 -0.002071009
-0.0028385653 0.0010614252 0.0065458375 -0.0029968629 -0.0010925954 -0.0023865947 0.0008579215 0.0007440955
-0.0005509614 -0.0033916736 0.0009278951 3.173559e-06 0.0019877546 -0.0056697913 -0.0035720319 0.003141967
0.0056390916 0.00028016092 0.00076764706 0.0055407463 0.0056351344 0.0013570526 0.003539827 -0.00019291589
-0.0033717814 -0.0016275798 0.0019131721 0.0031493134 0.0038483306 0.0037160015 0.0039417455 0.0047232974
0.00088837394 -0.00064391183 0.0014755583 0.00091119925 -0.006964428 -0.001275192 -0.0031371273 0.0033839534
-0.002512419 -0.00133168 -0.0034615106 -0.006982232 -0.0076261256 -0.0021817198 0.0017909516 0.0057217926
-0.0062175705 -0.0004554071 -0.0005894223 -0.00019755554 -0.0016059328 0.00053770375 -0.008642484 -0.0022167189
-0.0015296204 -0.0029546246 0.00046406058 0.002004621 -0.005416666 0.00025157342 -0.0038336175 5.185022e-05
0.0013884131 0.0035125248 0.0017243626 -0.00018257732 0.00037480393 -0.0030229494 -0.002458019 0.0023429708
0.0008826332 -0.0033125328 -0.001053488 0.00016570617 0.0030091123 0.0014846945 0.005989088 -0.0017772408
-0.0049662613 0.0008490314 0.001426275 0.007255815 0.008854113 -0.002321279 -0.0033260898 0.0003886764
0.0036669406 0.007481481 -0.0052386895 -0.00092384947 0.003547 -0.0016964842 0.0023220824 0.0039562103
0.0041991873 0.0086172875 0.004201409 0.0003046207 0.004133514 0.00062445283 0.0019156185 -6.127248e-05
0.0028501654 0.00047962123 0.0042633726 -0.00077763124 0.0045133983 0.0036538495 0.003661936 -0.0016724949
-0.0027301512 -0.007705674 -0.0051920596 -0.0026880086 -0.001333912 -1.2392215e-05 -0.002683861 -0.00065474655
0.001715367 0.00012683622 0.008653222 -0.0017469671 0.0026371742 -0.0004230481 0.002649884 0.0014857488
0.0018608136 -0.0034504605 0.0035846978 0.0033802134 0.00046821695 -0.0013749299 -0.003073187 -0.005668896
-0.001197294 0.00217281 -0.0044566663 -0.0007098488 0.0021683797 0.0017486139 0.0037890284 -0.0012017434
-0.0012732772 0.0074596596 -0.001484858 0.006416045 0.001539861 -0.001530417 0.0005930351 -0.0038034022
-0.0053707003 0.007343854 0.0015319146 0.0024346113 0.006546656 0.0031740265 -0.00068734464 0.0060759536
-0.00094723643 -0.00048013937 -0.0021042812 0.0025852022 0.0043795533 0.0002901554 0.003379748 0.005946292
0.0053975885 -0.0035088228 0.0018285693 0.000246209 0.00031902286 0.00066518725 0.00378141 -0.0023815066
-0.0062128534 -0.0015874238 -0.00363684 -0.003308773 -0.0042850534 0.0038463396 0.0021740324 0.0013805236
00000000: 83ae 4eba daf6 1f39 58fb 8a38 9555 52bb
00000010: b788 8eb9 8d56 34bb 7a06 3eba aae2 b2b9
00000020: 0659 5b3b b13e e7b8 cd36 453b 07e7 a7b9
00000030: 45fb bcba e661 053a 16b4 a7bb edc4 65bb
00000040: c594 363b b18b 3ebb f4f3 deba 05ab bd3b
00000050: f9ae e3bb ea45 05bb 247b 8fbb b6b6 12ba
00000060: 7d23 54bb 2033 dabb f72a e7ba 6bf2 a9bb
00000070: e4c7 003b ad5f 4f3b 65e1 c6ba e7df aeba
00000080: 11d7 4a3b a439 273b 1bd9 b5ba 8898 493b
00000090: 6af8 6dbb c811 8cb9 1d26 4339 9fee 0cbb
000000a0: a43d 123b 9f57 893a b7fd 483b cd21 d1b8
000000b0: 85e6 56bb 4fcb 593b f6dd 4e3b 3228 8dbb
000000c0: 7c69 25bb 2f0a 96bb 0e03 783b 2868 823a
000000d0: c55e 29bb 670b a2ba 63bd 063b ab60 d7ba
000000e0: 501a 40ba 0327 2aba 282b d4b9 9081 3fbb
000000f0: 758b 113b b087 38ba 5e7d b1ba cd0d 4bbb
00000100: 7e08 0f3a a974 28bb b49f c13a 7f1f 623a
00000110: 7072 8b3b 0519 0dbc d82b 9c3b c4b9 07bb
00000120: 3907 3abb 851f 8b3a 777e d63b 0467 44bb
00000130: 6b35 8fba 6a68 1cbb 23e6 603a 670f 433a
00000140: 656e 10ba d746 5ebb fc3d 733a 54f9 5436
00000150: fd44 023b a8c9 b9bb c018 6abb 76e9 4d3b
00000160: 21c8 b83b 90e2 9239 ec3b 493a 268f b53b
00000170: efa6 b83b 21df b13a 71fc 673b 7749 4ab9
00000180: 1bf9 5cbb 8454 d5ba 67c3 fa3a b664 4e3b
00000190: 4634 7c3b 2988 733b c229 813b e4c5 9a3b
000001a0: c4e1 683a 31cc 28ba 8567 c13a 8cdd 6e3a
000001b0: db35 e4bb 5824 a7ba 4398 4dbb 51c5 5d3b
000001c0: 65a7 24bb c48b aeba 83da 62bb 35cb e4bb
000001d0: 94e4 f9bb 2ffb 0ebb 5dbe ea3a e07d bb3b
000001e0: c3bc cbbb b5c3 eeb9 7683 1aba e926 4fb9
000001f0: 2a7e d2ba b0f4 0c3a 3599 0dbc 5f46 11bb
00000200: 8b7d c8ba 60a2 41bb 284d f339 f65f 033b
00000210: 4a7e b1bb 9de5 8339 6e3d 7bbb c079 5938
00000220: 6afb b53a 6332 663b 0204 e23a 3a72 3fb9
00000230: 5581 c439 ad1c 46bb b716 21bb 878c 193b
00000240: 8360 673a 1417 59bb 3115 8aba 69c1 2d39
00000250: 8734 453b 159a c23a 1d40 c43b 4ef2 e8ba
00000260: 05bc a2bb 8891 5e3a d9f1 ba3a 30c2 ed3b
00000270: d710 113c 9920 18bb 87fa 59bb 43c7 cb39
00000280: 0e51 703b 3627 f53b 50a9 abbb 7d2e 72ba
00000290: c974 683b 905c deba 142e 183b 19a3 813b
000002a0: 5699 893b 862f 0d3c f9ab 893b 80b5 9f39
000002b0: 6e72 873b 52b2 233a 7e15 fb3a 6a7f 80b8
000002c0: d7c9 3a3b ac75 fb39 c3b3 8b3b f3d9 4bba
000002d0: 21e5 933b 6c75 6f3b 17fd 6f3b 9e37 dbba
000002e0: 56ec 32bb e17f fcbb 2722 aabb 4d29 30bb
000002f0: a9d6 aeba 28e8 4fb7 b7e3 2fbb 4ca3 2bba
00000300: 2ad6 e03a 57ff 0439 3ec6 0d3c 7dfa e4ba
00000310: 71d4 2c3b 8ecc ddb9 ada9 2d3b 75bd c23a
00000320: 8be6 f33a 1f21 62bb 40ed 6a3b 9286 5d3b
00000330: 047b f539 fe36 b4ba 8667 49bb 25c2 b9bb
00000340: 85ee 9cba b465 0e3b 3a09 92bb 2615 3aba
00000350: 601b 0e3b bf31 e53a 5951 783b d183 9dba
00000360: 18e4 a6ba 2970 f43b 919f c2ba b03d d23b
00000370: 29d5 c93a 4698 c8ba e975 1b3a 8042 79bb
00000380: b3fc afbb b6a4 f03b 86ca c83a 008e 1f3b
00000390: 5585 d63b 5403 503b eb2e 34ba cb18 c73b
000003a0: f64f 78ba 37bb fbb9 fbe7 09bb 7f6c 293b
000003b0: 5b82 8f3b 0020 9839 c37e 5d3b 1dd9 c23b
000003c0: 41de b03b 47f4 65bb 9bac ef3a 9d15 8139
000003d0: 8642 a739 f65f 2e3a 88d1 773b 0d13 1cbb
000003e0: 3195 cbbb 1b11 d0ba 0d58 6ebb 00d8 58bb
000003f0: a269 8cbb df12 7c3b 367a 0e3b aff2 b43a

fc.bias f4 [2]
-0.0008092499 -0.00035520745
00000000: d723 54ba 233b bab9
