model/cnn.pth (torch, 247879 bytes, 9 tensors)

conv1.weight f4 [6, 3, 5, 5]
00000000: 18d9 e4bc 405e 523c 9abf eabd baf4 64bd
00000010: 30ff 7f3c 52d7 b83d 675c 7fbd eaca ce3d
00000020: 6ab2 de3d 0072 103a 1c27 99bc 4877 563d
00000030: ceaf cebd 98b5 133d 7c48 bebc 7c5e 96bc
00000040: b803 b23d 020b 7bbd 69e5 61bd 2011 993d
00000050: 98ae 47bc 9ef1 bcbd 1a05 893d e08d 183c
00000060: 880b 563d 62bd 9ebd f3e9 82bd 50d4 0e3d
00000070: af09 d9bd 24cd 9cbc 765c 98bd 391a 5dbd
00000080: 2ead d43d c0e7 abbc 5890 123d ab02 99bd
00000090: b053 b43c 3049 583c 0e55 4ebd 60ad 583d
000000a0: d0c7 c13c 10d0 663d d4c5 d9bd 4809 c93c
000000b0: 50b2 c1bb 884d b6bd b012 d13b c8e8 463d
000000c0: 1261 abbd 60ce 3a3c e0d5 4fbd b8b1 f43c
000000d0: ec64 4cbd a0ae 69bd 73f4 82bd cd2e 93bd
000000e0: 30d2 8b3c 9269 65bd f360 c3bd 04b1 da3d
000000f0: 6a0b e7bd 30da 6a3c 201e e43d 4cc6 c6bc
00000100: b017 e53b 309e 0c3d 3d9c 5ebd 8aa1 a5bd
00000110: 9c96 2f3d 62c5 d8bd 191d a7bd 784b fe3c
00000120: 68c9 d53d e815 3ebc 60c2 ca3d 6cc4 c03d
00000130: 9538 b5bd bc71 393d 68c1 703d c2f1 df3d
00000140: 9254 4bbd c0eb 33bd a054 c5bc bc1f 263d
00000150: b04b ce3c d453 903d 9879 5a3d 8a4a c23d
00000160: e6aa 933d 6076 cdbd 82bb 1abd 1ea1 a83d
00000170: f3a0 d5bd 76c1 8c3d 3c0a 20bd 988e 0f3c
00000180: 8cd4 67bd 3b9a cabd f042 363c b866 2e3d
00000190: f2c3 9f3d 82c8 b33d e8af c6bd 06a3 4abd
000001a0: 1c89 c73d 9445 903d 50f1 b23c b053 083d
000001b0: c84d 03bd 00ca 393d 3014 d93d 6e60 1bbd
000001c0: a426 213d 8ac9 e73d bfcb e0bd e024 05bb
000001d0: 9eb1 16bd a868 3f3d 9e6b 58bd 7095 bc3c
000001e0: b866 d13d 88ba e1bd fe25 8f3d f4d3 313d
000001f0: 8ce7 d1bd 706a 213c ec49 05bd 38f2 a73c
00000200: 9cbd 7e3d 74a4 a23d f8f5 f93c 7edb a43d
00000210: 41a6 77bd 4d4d c0bd 1c0d 563d c62b 3fbd
00000220: 2491 063d 8e1f cebd 0c81 c2bd 7062 ffbb
00000230: 68bf 7abc 88d9 afbd e59d 8dbd 9414 67bd
00000240: ea91 963d d607 d43d 30fe c63c 213b 98bd
00000250: 6e0c adbd 0b3b eabd cba2 9abd 340d a23d
00000260: 0021 83bd 56d5 cf3d 3879 993c 2a69 02bd
00000270: 160d cbbd 9cfd e0bd f855 e4bc ece6 a93d
00000280: 2808 debc d462 103d 4085 533c 9085 68bc
00000290: b039 47bc f000 e3bc a057 87bb 59aa e5bd
000002a0: 8ea8 30bd 446a c4bd f01e c2bc c8bc b1bd
000002b0: 5081 c23d 7c27 0c3d 0240 8a3d 3559 e3bd
000002c0: 930a bfbd e8e2 d73c 104d ad3d 18db 9e3d
000002d0: 0cbc d73d b894 df3c 61a1 dabd 246c abbd
000002e0: 3cb2 803d 5235 a3bd 2001 e63c 520c b63d
000002f0: 284b c3bd dbe9 75bd 7699 c2bd 18fa 9e3d
00000300: d013 30bc 9fa0 dbbd f6bd 10bd 9414 a8bd
00000310: f084 f33c 8045 633c dc90 ce3d 6a03 8b3d
00000320: 7808 73bc bd91 e7bd bc50 833d 209b 203d
00000330: 8154 c4bd 5490 d13d 70d3 47bc e0c4 653b
00000340: 4c86 383d 9cc6 65bd 60eb f23c 4180 b7bd
00000350: c0b3 b63c d083 723d 73b3 d1bd f654 a4bd
00000360: c1bd bdbd a69b 13bd f284 a1bd 4c01 123d
00000370: 83cd 78bd f87b cdbc f04d 6fbc 607d 5fbc
00000380: d892 cb3c dce8 38bd 502b cd3c 7e28 e63d
00000390: b0eb 573d 0024 f7bc 2320 6dbd 5b21 61bd
000003a0: c03d 443c eeb5 e5bd a493 adbc 50bf 043d
000003b0: 625d c33d 2acf e9bd 9eb8 a93d a82a 41bd
000003c0: 9802 16bd da8c ca3d a0ee a83c 50e5 8d3c
000003d0: 00f3 dbb9 08eb d23d 3abd a53d 2fed bbbd
000003e0: 1011 d0bb 2ec1 d2bd 7b36 ccbd 60c4 a83b
000003f0: 5c77 fbbc 0a24 e93d 5029 0abd 4ac6 eb3d
-0.02793555 0.012839854 -0.11462326 -0.055897452 0.015624806 0.09025444 -0.06234398 0.100972965
0.108738735 0.00055101514 -0.018695407 0.05235985 -0.10092126 0.036061853 -0.023227923 -0.0183556
0.086921155 -0.061289795 -0.055150423 0.074739695 -0.0121876225 -0.09225772 0.06690426 0.009311169
0.05225709 -0.07750966 -0.063922785 0.034870446 -0.1059755 -0.019140787 -0.074395105 -0.053980086
0.10384594 -0.02098453 0.03578219 -0.07471212 0.022012562 0.013201043 -0.050374083 0.05289972
0.023654848 0.056350768 -0.10633436 0.024540558 -0.005911149 -0.08901507 0.0063804016 0.04856184
-0.08368124 0.011401743 -0.050741076 0.0298699 -0.049900934 -0.0570513 -0.06394281 -0.07186661
0.017067999 -0.056008883 -0.09539976 0.10678294 -0.11281474 0.0143342465 0.111385584 -0.024264477
0.006991349 0.034330547 -0.05434822 -0.08087452 0.04286824 -0.10584523 -0.08159847 0.031041846
0.10438806 -0.011601903 0.09900355 0.094124645 -0.08848683 0.04527448 0.058778197 0.109347835
-0.0496412 -0.043926 -0.024088204 0.040557608 0.025182575 0.07047239 0.053338617 0.094868734
0.07210331 -0.10032344 -0.037776478 0.08233856 -0.10431089 0.06872837 -0.03907226 0.008762024
-0.056599185 -0.098926984 0.011124358 0.04257843 0.078010455 0.08778478 -0.0970152 -0.049471878
0.097429484 0.07044521 0.021843582 0.033282936 -0.0320566 0.045358658 0.105995536 -0.03793376
0.03934349 0.113177374 -0.109763615 -0.0020316169 -0.036790483 0.046730667 -0.052837007 0.023020476
0.1022467 -0.11021906 0.06989668 0.043415025 -0.10249242 0.009852037 -0.0325412 0.020501241
0.062192544 0.07941523 0.030512795 0.08049677 -0.060461286 -0.09389744 0.052258596 -0.046672605
0.03285326 -0.10064612 -0.0949727 -0.007793717 -0.015304424 -0.08586413 -0.069148816 -0.05641611
0.0735205 0.10353057 0.024291128 -0.07433153 -0.084496364 -0.11437043 -0.075505815 0.079126745
-0.064027786 0.101481125 0.01873456 -0.031838574 -0.09914605 -0.10985872 -0.027873024 0.08295998
-0.027103499 0.0352505 0.012910187 -0.014192 -0.01215975 -0.027710408 -0.0041303188 -0.11214132
-0.043129496 -0.09590581 -0.023696393 -0.08678585 0.09497321 0.034217343 0.0675049 -0.11100999
-0.09328189 0.026353315 0.08461964 0.077566326 0.10533914 0.027292594 -0.10675312 -0.083702356
0.062839955 -0.079691544 0.028076708 0.08889069 -0.09535819 -0.060037475 -0.095019266 0.07762545
-0.010746911 -0.107239954 -0.03533741 -0.0820705 0.029726475 0.013871551 0.100862235 0.067877606
-0.014833562 -0.11307094 0.06411883 0.03921044 -0.0958643 0.102326065 -0.012196407 0.0035059974
0.04504995 -0.05609761 0.029653251 -0.08960009 0.022302508 0.059207737 -0.10239305 -0.080240175
-0.09264708 -0.03603711 -0.078866854 0.035645768 -0.060742866 -0.025083527 -0.014605984 -0.013640732
0.024850294 -0.045143947 0.025045067 0.11238192 0.052715003 -0.030168533 -0.057891976 -0.05496345
0.011977613 -0.11216341 -0.021188565 0.032409012 0.09539296 -0.114164665 0.08287166 -0.04715982
-0.036623567 0.098901466 0.020621598 0.017321259 -0.00041951984 0.10298735 0.08092733 -0.091760986
-0.0063496903 -0.10290752 -0.09971329 0.005150363 -0.030696563 0.11383827 -0.033730805 0.1151243

conv1.bias f4 [6]
00000000: 45ba c4bd 0883 083d c036 1cbb e99d adbd
00000010: f022 913b 485f b63d
-0.096058406 0.033328086 -0.0023836344 -0.084773846 0.0044292137 0.08904892

conv2.weight f4 [16, 6, 5, 5]
00000000: f419 203d 82e2 893d b3f6 10bd 76af 03bd
00000010: 0261 a03d e813 3b3d d42f 963d b44e 953d
00000020: c614 903d d61f 823d 2045 e3bb 2a73 febc
00000030: d637 1e3d 4d48 3ebd a6fd 0bbd 648b abbc
00000040: 6ceb 98bc ec3e 853c 6854 5a3d 0896 3c3c
00000050: 2013 72bd 185d 86bd 0874 263c c8e7 663c
00000060: 6293 a53d e66a cabc 0890 e33c 707c 053d
00000070: 0f1b 25bd b859 4c3d 0a2f a7bd 60b8 aabb
00000080: 62a6 62bd e813 bd3c c029 833c c900 7cbd
00000090: ece2 783d ceaf 023d a097 9c3b ec3f d8bc
000000a0: 5542 36bd 9dce a3bd 08c9 da3c 3d73 95bd
000000b0: a22f 90bd 40c9 df3b 609e a03d 409a a63d
000000c0: b464 1e3d 4820 953c dab5 1e3d fc67 133d
000000d0: 4389 8bbd 3af0 3fbd f1c9 99bd eca6 323d
000000e0: 7ea7 edbc cc7b ef3c 2e5f 093d 58fe 0cbd
000000f0: d8d3 fd3c 0e91 883d a824 c5bc 8033 9eba
00000100: 3cd3 6b3d e42c 8cbc 38aa 533d 16b9 57bd
00000110: e071 8f3b 1e9b 8fbd 90cc 18bc c0fa d3bc
00000120: a401 c43c c7d5 8dbd f00a 6f3d 7c2a e53c
00000130: b0e6 87bb 881a 603d bf6c 08bd ba29 d3bc
00000140: 1a8d 9a3d 28a7 4c3d ec16 2b3d 008c 703d
00000150: dc26 4ebd 4820 7a3c e476 7e3d 4406 813c
00000160: c47e 533d d8e1 773c d86b fdbc 3a8f f6bc
00000170: 8423 793d dc0d 633d 68fc 23bd 3a09 9fbd
00000180: 90fb 123c b0d4 2a3d d46f 803c c086 963d
00000190: 1429 6d3d 7cb0 debc 609d b53c 4632 bdbc
000001a0: d827 453d 0a48 8f3d 10f8 55bd 1415 613d
000001b0: 789a ddbc ba02 293d 3405 85bc 70f6 3c3d
000001c0: aea7 25bd c485 5f3d 2498 9d3c f0e2 e93c
000001d0: 7466 86bd 80ac 0c3d 785d 9a3d 588e 233c
000001e0: b39f 21bd 8416 7a3d 9a8f 50bd f87c 413c
000001f0: 088a 4f3d 1b2b 41bd d0cc cb3c 3074 ca3b
00000200: 485d 2d3c 9703 58bd b0b0 2a3d e27e cfbc
00000210: 50ce 6d3d 1830 5e3d c66b 91bd 1cbe 463d
00000220: 64c9 79bd c0ef b9ba 31d1 87bd 96c3 85bd
00000230: 9add 2a3d 4eb3 9dbc 1cd1 8c3d e4a2 e73c
00000240: 881a 0bbc 30e0 9d3c 256c 8bbd e0e8 70bc
00000250: 38e4 4e3d f0f9 efbb a121 6fbd 9571 27bd
00000260: e0d0 7ebd fca5 5e3d e08f 433b e811 a33d
00000270: 3268 d3bc 2410 5bbd 03f7 a5bd d072 053d
00000280: 1645 a1bd 4438 ac3c d789 14bd ac69 80bc
00000290: 06af 9cbd 388a e73c 8413 83bc 261e 8b3d
000002a0: 7c7d c93c 68b3 863c 6e39 093d 9483 b7bc
000002b0: e66d 9cbd ac19 5d3d eae0 04bd 2354 8fbd
000002c0: 901a 8e3d 1b5a 90bd 48ba 6c3d 3537 17bd
000002d0: 48d2 4a3c f25c 9c3d 0424 563d 7a87 81bd
000002e0: 8ed3 a53d 02bb 1abd bddb 61bd 0cb3 3d3d
000002f0: 18dd 653d da69 cdbc deec 78bd a2e3 33bd
00000300: 3c1e 0a3d a82d 2e3d 505f 303c 5547 3abd
00000310: 28da 88bc 603d 8cbd 7e5a 85bd 5004 903c
00000320: dbc4 46bd 9c1f 763d c8f7 6b3d 7d37 3dbd
00000330: ace7 a6bd bef6 e6bc b02c ecbb b40e c6bc
00000340: 809c b03c 983a 8f3d 300f 1c3d 706e 0c3d
00000350: 3961 93bd 287e 03bd 0834 1ebc e09f 833d
00000360: 6c0a 8a3d a00e 1e3d 08a8 46bc 924e 063d
00000370: 8ae1 8fbd 2099 99bc fc73 50bd 9d8c 0abd
00000380: 50b5 a3bd 00b5 443a 001a 7abc b8e7 673d
00000390: d050 bd3c 471a 92bd 90d6 143c ba26 45bd
000003a0: 4806 3d3c 2cce 53bd 09a4 47bd 5dff 8dbd
000003b0: 143c ccbc b8c0 15bd f087 823b ba90 8f3d
000003c0: b8e9 1abc 0e5e 1c3d d854 c63c 301c ffbb
000003d0: 88fa 9e3d 8ee3 42bd ace6 1f3d eeba 973d
000003e0: d6e4 56bd 979b 87bd b8ce 5fbd 30f7 7e3c
000003f0: ea35 a23d 48f4 2bbd 88bf 24bd e7a7 90bd
0.03908725 0.06732656 -0.03539152 -0.032149754 0.07831003 0.04567328 0.07333341 0.07290402
0.07035212 0.063537285 -0.0069357306 -0.031060774 0.038627468 -0.04645567 -0.034177445 -0.02094049
-0.018666945 0.016265355 0.053303152 0.01151038 -0.05910027 -0.06560725 0.0101595 0.014093347
0.08084752 -0.024709176 0.02777864 0.032589376 -0.04030901 0.04989025 -0.08163269 -0.0052099675
-0.055334456 0.023080781 0.016011119 -0.061524186 0.060763285 0.03190594 0.0047788173 -0.026397668
-0.044496853 -0.07998393 0.026707187 -0.072973706 -0.07040335 0.006829411 0.07842708 0.081348896
0.038670257 0.01820387 0.038747646 0.03598784 -0.0681329 -0.046859957 -0.075092204 0.04361622
-0.02901053 0.029233836 0.033538036 -0.03442225 0.030984804 0.06668292 -0.02406533 -0.0012069792
0.057574496 -0.01711125 0.051676005 -0.052666746 0.0043775886 -0.07012008 -0.009326115 -0.025876403
0.023926564 -0.069255404 0.05836004 0.02797436 -0.004147373 0.054712802 -0.033306833 -0.025776733
0.07546444 0.0499641 0.041769907 0.058727264 -0.050330028 0.0152664855 0.0621251 0.015750058
0.051634565 0.015129529 -0.030935213 -0.030097593 0.060824886 0.05543314 -0.040035635 -0.07765432
0.00897111 0.04170674 0.015678324 0.0734992 0.057900503 -0.027183764 0.022169769 -0.023095261
0.0481337 0.06996162 -0.052238524 0.054951742 -0.027051196 0.041262366 -0.016237833 0.04613346
-0.040443115 0.05457093 0.019237585 0.028550595 -0.0656251 0.034344196 0.07537359 0.009982668
-0.03945894 0.06105663 -0.0509182 0.01180958 0.050668746 -0.04716025 0.024877936 0.0061784014
0.010581322 -0.0527378 0.04167241 -0.025329057 0.058058083 0.054245085 -0.07100634 0.048521146
-0.060983077 -0.0014185831 -0.06631697 -0.06531446 0.041715242 -0.019250538 0.06875822 0.028275914
-0.008490212 0.01927194 -0.06807736 -0.014703959 0.050510615 -0.007323496 -0.05838168 -0.040879805
-0.062210917 0.054357514 0.0029840395 0.079624 -0.02580652 -0.05348219 -0.08103754 0.032580197
-0.07874505 0.021022923 -0.036264267 -0.015675388 -0.076505706 0.02826415 -0.016000517 0.0679286
0.024595968 0.01644297 0.033502035 -0.022401609 -0.07638149 0.05397956 -0.032441057 -0.0699847
0.0693866 -0.07048436 0.05779484 -0.036917884 0.0123792365 0.076349154 0.05228044 -0.06324668
0.080969915 -0.037776 -0.0551412 0.04631333 0.056119055 -0.025074888 -0.06077277 -0.04391826
0.03372024 0.04252401 0.010764912 -0.045478184 -0.016705588 -0.06847644 -0.06511401 0.017580181
-0.04852758 0.06008874 0.05760935 -0.046195496 -0.08149657 -0.028193828 -0.0072074756 -0.024176933
0.021559 0.06993598 0.03810042 0.03428501 -0.07196278 -0.032102734 -0.00965596 0.06426978
0.06740269 0.038588166 -0.012125023 0.032789774 -0.0702544 -0.018749774 -0.05089186 -0.033825506
-0.07993567 0.0007503778 -0.015264988 0.05661747 0.023109823 -0.07133918 0.009084359 -0.048132636
0.011537142 -0.051710293 -0.04874042 -0.06933472 -0.024930991 -0.036560744 0.00398349 0.07010026
-0.009455137 0.038175635 0.024210379 -0.0077853426 0.07762629 -0.047580294 0.039038345 0.07408701
-0.05246433 -0.06621473 -0.0546405 0.015561864 0.079204395 -0.04198101 -0.04022172 -0.07063275

conv2.bias f4 [16]
00000000: 4c5c be3c 5cf4 8a3d 6cf9 80bd 52b5 2f3d
00000010: 9017 57bd 8096 273c f0d7 b73b f85d 843d
00000020: 081b 883c a8af 3d3d a846 66bc 3c46 81bd
00000030: c2a5 96bd 687f 203d e4f9 8b3d 06be 8a3d
0.02323737 0.06784889 -0.062975734 0.04289753 -0.052512705 0.010228753 0.0056104586 0.064632356
0.016614452 0.046310097 -0.014054932 -0.06312224 -0.073558345 0.039184004 0.06834772 0.06774525

fc1.weight f4 [120, 400]
00000000: c889 6ebc 5aa9 1cbd 4bac 463d da6b 39bd
00000010: 2512 3b3d deb3 0fbd 0081 a9bc ccd9 71bc
00000020: a090 753b 28c3 fcbb 9779 b6bc 587f 15bd
00000030: 009b 1d39 42b4 df3c 88a3 20bc 1d5f f4bc
00000040: c87f 31bd bf4c 1d3d a6b1 863c 5299 f73c
00000050: 6e76 813c 1ea0 a53c 9057 963b 3e95 8f3c
00000060: c2a2 c83c 46ad 23bd 40a0 bbba 2b73 44bd
00000070: 703c e4bc 1f6b 273d 1a3d c4bc 0df9 dcbc
00000080: 68d9 8dbb 1860 41bc 3044 52bb 4e31 e53c
00000090: 55c1 373d 60d3 18bc 31f7 3f3d 803b d0bb
000000a0: 57c0 1d3d 4a38 eebc 9df3 bfbc 6be8 29bd
000000b0: d086 11bb f73d fdbc 15be 413d c441 703c
000000c0: f7ef 213d 80f8 90bc aa6f 8fbc 0e2b 843c
000000d0: 5031 95bc a853 6fbc d18e 1e3d 99f5 173d
000000e0: 3950 213d 777d d6bc 66e6 fa3c e7ee e7bc
000000f0: 2a52 a93c 40d7 aa3b 9486 43bc 909b 9e3b
00000100: 7793 9fbc 0fa1 133d e812 e5bb 690e 063d
00000110: 2866 4c3c 2616 86bc cc57 3fbc 60c3 eebc
00000120: 7ab8 f2bc f565 0abd ff7c 233d 0036 04bb
00000130: 371d a7bc 002d d23a bccc 4d3c 9889 a43b
00000140: 017a 4a3d a069 42bc 862c 90bc 4259 833c
00000150: 00de 84bc e2a3 09bd 3b48 493d cb4b 113d
00000160: 40d8 4fbc 9dc4 b7bc 4a8e 1abd 8952 043d
00000170: 2aba 1cbd 6a5a 91bc 280f 23bc d011 583b
00000180: 8a69 95bc 1611 853c 90ae d5bc a35f e7bc
00000190: 4aed d3bc b325 49bd 7da9 463d a4e6 653c
000001a0: 6052 1dbc bb46 443d 8041 6dba 8090 5e3b
000001b0: fcd0 783c 2ec0 fa3c 30f3 aebc f553 00bd
000001c0: d397 2cbd 51f6 0a3d 0056 5f3b 0142 463d
000001d0: b26f fa3c 35d1 0b3d 2a54 ef3c 86ee b03c
000001e0: a65a d83c 8db8 1f3d 8cc7 37bc ccd3 75bc
000001f0: cdcb 37bd 6815 8a3b c64e 9e3c 34f3 68bc
00000200: 2cd1 633c 0784 a8bc 2851 c0bb aa20 13bd
00000210: 6d0c 0abd 3029 1d3b 40b1 32ba cf40 283d
00000220: 2de7 40bd d87a c43b 4030 bf3a 8460 90bc
00000230: 08ae 23bd 31ed 253d 602f e3bc a05d e8ba
00000240: 2a9d 983c d208 883c f88b 4fbc 436b ecbc
00000250: 027e b33c 276e 4b3d 301b 17bd 00dd 65b9
00000260: 1136 203d 5a97 cb3c a81e 8b3b 0239 ef3c
00000270: a2c6 2cbd d05e b03b d2f6 27bd 2cf5 3fbc
00000280: ecdd 18bc 5455 383c b64a 843c 2fb9 4abd
00000290: 6ecf ec3c c198 033d 2c4f 663c a8dd d1bb
000002a0: 6184 3e3d 5050 3f3b f472 013c e16f 013d
000002b0: e1b9 073d 422a 9e3c 368f b03c 7d1b 30bd
000002c0: a2f2 cf3c 3804 05bd 65d0 38bd 0b48 113d
000002d0: 507d ac3b 5484 8bbc 6e32 dd3c a83b adbb
000002e0: b027 36bd 4387 1b3d 006e dabc 3d4d c5bc
000002f0: c401 5e3c 0cea 97bc b119 473d d24c 933c
00000300: c1e4 223d 2dd6 19bd e399 13bd a37c 3dbd
00000310: f819 20bd f5a1 0e3d fdcf 4b3d 6ddc 2a3d
00000320: 2835 e7bb a21f eb3c f31f 3a3d d6fd 893c
00000330: 172a 273d bf11 443d 6f99 4c3d c08e d9bb
00000340: a898 0abd f783 a2bc 284d 9f3b a551 3b3d
00000350: a5c3 103d a010 42bd e69d 86bc f433 16bc
00000360: 8b58 44bd a308 493d b742 303d 98e0 df3b
00000370: 1891 fc3b 7a76 fcbc 16b0 ba3c 0b1f 35bd
00000380: 0048 78bc 53c3 b8bc 6026 f63a 60b3 3dbd
00000390: 6df1 a3bc cd0f 05bd 9092 e6bc 6000 a2ba
000003a0: 7315 ffbc 3212 e73c 69ac 053d dbf3 18bd
000003b0: 50cb 94bb 6252 c93c ad37 1dbd 4755 b2bc
000003c0: ff3f 46bd 597a 483d 107d 92bc 6e92 873c
000003d0: acf8 6abc 5183 3e3d ffc0 473d 62c7 bc3c
000003e0: ec96 58bc bd8b 34bd d8dd 7bbc 56e4 9f3c
000003f0: e446 583c 9e9d c13c 7240 19bd 2ddc dcbc
-0.014559217 -0.038247444 0.048504155 -0.04526887 0.0456716 -0.035083644 -0.020691395 -0.0147613995
0.0037470236 -0.007713694 -0.022274775 -0.036498398 0.00015030429 0.027307633 -0.009804614 -0.02983051
-0.043334752 0.03840327 0.016442131 0.030224476 0.015803542 0.020217951 0.004588075 0.017527219
0.024491671 -0.03996017 -0.0014314726 -0.047961395 -0.02786085 0.040873643 -0.023954917 -0.026974225
-0.0043288954 -0.011802696 -0.00320841 0.027977612 0.04486211 -0.0093277395 0.0468666 -0.006354749
0.038513508 -0.029079575 -0.023431594 -0.041481417 -0.0022205599 -0.030913336 0.047300417 0.014664117
0.03953549 -0.017696619 -0.0175093 0.016133811 -0.01821199 -0.014607348 0.03871042 0.037099455
0.039383147 -0.026182873 0.03062744 -0.02831216 0.020669062 0.005213648 -0.011933941 0.004840322
-0.019479496 0.03604227 -0.006990779 0.032728586 0.012475528 -0.016367983 -0.011678647 -0.029145896
-0.02962898 -0.03378864 0.039914127 -0.0020173788 -0.020399673 0.001603514 0.0125610195 0.0050212853
0.04943276 -0.011866003 -0.017599355 0.016033772 -0.01621914 -0.033603556 0.04914115 0.035472672
-0.012685835 -0.02243262 -0.037733354 0.032305274 -0.038263477 -0.017743308 -0.009952344 0.0032969601
-0.018238802 0.016243499 -0.026084214 -0.028243845 -0.025869984 -0.04910822 0.04850148 0.01403204
-0.009602159 0.047919016 -0.0009050593 0.003396064 0.0151865445 0.030609217 -0.021356195 -0.031330068
-0.04213698 0.033926312 0.003407836 0.04840279 0.030570839 0.034135062 0.029214937 0.021598112
0.026410412 0.03899436 -0.011217009 -0.01500411 -0.044872094 0.0042139776 0.019324671 -0.01421814
0.013904851 -0.020570768 -0.0058690496 -0.035919823 -0.033703256 0.0023980848 -0.00068165734 0.04107743
-0.047095466 0.0059960894 0.0014586523 -0.017624147 -0.03996089 0.040509406 -0.027732551 -0.0017728098
0.01862963 0.016605768 -0.0126676485 -0.02885974 0.021910671 0.049665596 -0.036891162 -0.00021921471
0.03911406 0.024852443 0.004245598 0.029201988 -0.04218162 0.0053823963 -0.04100687 -0.011716168
-0.009330254 0.011250813 0.016148906 -0.04949301 0.028907504 0.0321281 0.014056962 -0.0064045973
0.046512965 0.0029192157 0.007900942 0.031600837 0.033136252 0.01930726 0.021552663 -0.042994965
0.025384251 -0.032474726 -0.045120616 0.035469096 0.005263962 -0.017030872 0.027001586 -0.0052866526
-0.044471443 0.037970793 -0.02666378 -0.024084682 0.013550226 -0.01854422 0.048608486 0.017980967
0.039768938 -0.03755777 -0.03603543 -0.04626144 -0.039087266 0.034822423 0.0497589 0.04171412
-0.0070558973 0.028701607 0.045440625 0.016844671 0.040811624 0.047868486 0.049951013 -0.0066393316
-0.03383699 -0.019838316 0.0048614927 0.04573216 0.03534283 -0.047379136 -0.016432714 -0.00916766
-0.047936004 0.049080502 0.043032374 0.0068321936 0.007707726 -0.030818213 0.022789042 -0.044219058
-0.015153885 -0.022554075 0.0018779747 -0.046313643 -0.020012582 -0.032485772 -0.028146058 -0.0012359731
-0.031138157 0.028206918 0.032635126 -0.037341934 -0.0045408383 0.024575416 -0.038383175 -0.021769179
-0.048400875 0.048944805 -0.0178819 0.016549315 -0.014341515 0.04651195 0.04876804 0.023044292
-0.013219576 -0.044078577 -0.015372716 0.019518059 0.013200495 0.023634728 -0.037414975 -0.026960457

fc1.bias f4 [120]
00000000: a4b5 503c e3d2 2c3d e6dc d23c c8a6 6ebc
00000010: 5631 df3c f126 4b3d 0c76 3fbc cd33 c7bc
00000020: 6018 5cbc 2da7 3cbd 838b 2c3d ca31 b8bc
00000030: f9ee 343d 9862 a13b 42ec ed3c 6736 113d
00000040: 8e20 8a3c 2af2 a43c 8304 f2bc 029a 8f3c
00000050: 9cc3 90bc 18d2 0b3c 4ac0 84bc 582e 2ebc
00000060: 868e 00bd 1036 cf3b 633c 3dbd 8d8b 45bd
00000070: aea5 bc3c f4c5 14bc 3308 d6bc bdb1 b7bc
00000080: 844c 673c e61f 17bd 1ee1 1dbd aeec be3c
00000090: 67d5 acbc 243d 6e3c 604d c33a 20e4 123b
000000a0: 1843 d4bb 7717 3cbd ec49 49bc 5808 c4bb
000000b0: 94ad 383c 4207 e13c 406c 123c 98a3 31bc
000000c0: f2bf fc3c 5031 4e3b db14 3b3d 0007 f53a
000000d0: 3983 263d 5811 81bb 026a f23c 43ac 3fbd
000000e0: d878 21bd 298b 493d a253 b73c e8fa 9bbb
000000f0: ccfa 113c 2e63 a83c 4084 b53b 6e9c de3c
00000100: cd28 9ebc d54b 1d3d 2a58 9bbc 8887 14bd
00000110: 1867 7ebc 5521 43bd 988a 02bd d78b 0e3d
00000120: ac9b 11bc 2cad 02bc b5f5 2dbd 3c59 06bd
00000130: 552c 0a3d e824 50bc 8dea 41bd b24e f33c
00000140: 497f 203d d8e7 bebb f72a 193d 4d33 c4bc
00000150: 43cd 0dbd ec17 493c 1584 2fbd 5833 9fbb
00000160: bcb7 703c 6070 9cbc d0e8 7abb 2157 0f3d
00000170: 57fb 163d 201f 2b3c 6051 7ebb 8cb6 5d3c
00000180: 23a8 a8bc c621 e73c d8d5 76bc 11cd 083d
00000190: 82ab 17bd f3d8 1abd 0337 043d 8733 143d
000001a0: d97b 153d 084e 39bd 1b60 1bbd 4dab 20bd
000001b0: acfc 43bc 5d9e 2e3d 0708 f6bc ad98 d9bc
000001c0: 1f4e 173d 2ae7 09bd 1097 913b 9b64 42bd
000001d0: 3d34 153d 08da 1a3c c44d 99bc 60a9 3b3c
0.012738619 0.042193305 0.025740098 -0.014566131 0.027245205 0.049597684 -0.011685859 -0.024316693
-0.013433546 -0.04605787 0.042125236 -0.022484679 0.044173215 0.0049250834 0.02904332 0.035452273
0.016861226 0.020135004 -0.029543167 0.017529491 -0.017671399 0.008533977 -0.016204972 -0.010631166
-0.03138592 0.0063235834 -0.046200167 -0.04822879 0.023028221 -0.009080399 -0.026126957 -0.02242362
0.014117364 -0.036895655 -0.038544767 0.023306217 -0.021097852 0.014540944 0.0014900379 0.0022413805
-0.0064777248 -0.045920815 -0.012285691 -0.00598244 0.011271853 0.027469281 0.008936942 -0.010842226
0.030853245 0.0031462498 0.045674186 0.0018694103 0.040652487 -0.003938835 0.029591564 -0.04679514
-0.039421886 0.04920498 0.022378746 -0.004760135 0.008909892 0.020555105 0.005539447 0.0271742
-0.019306565 0.038402397 -0.018962938 -0.036262065 -0.015527509 -0.04763921 -0.031870455 0.03480133
-0.008887213 -0.007975858 -0.042470653 -0.032799944 0.033733685 -0.012704112 -0.047342826 0.02970061
0.03918389 -0.005825978 0.03739449 -0.023950243 -0.03461958 0.01227377 -0.042850573 -0.0048584156
0.014692243 -0.019096553 -0.003828574 0.034995202 0.03686079 0.0104444325 -0.0038805827 0.013532292
-0.020587986 0.028214347 -0.015065633 0.03339869 -0.037028797 -0.037804555 0.032279026 0.036181953
0.036495063 -0.045240432 -0.03793345 -0.039225865 -0.011962097 0.042631496 -0.030033125 -0.02656206
0.036939736 -0.03366772 0.004443057 -0.047459226 0.03642677 0.009451397 -0.01871384 0.011453956

fc2.weight f4 [84, 120]
00000000: f813 343c 0053 c83b 8011 223d b567 97bd
00000010: 96f3 a8bd 366d 903d 681f 193c 4006 3f3d
00000020: be01 94bd 6c04 fcbc 64ba 8ebd 5626 b03d
00000030: 6607 9cbd bc56 a7bc c654 7abd 3c62 79bd
00000040: b83c 07bd c09c c6ba 78e8 903d b4bc 74bd
00000050: c0a9 b93c b779 39bd 8e48 5fbd d455 4d3d
00000060: 781d 11bc 7c7d 0a3d 806d 91bb 5212 80bd
00000070: ae91 b73d fc14 853d 60c9 263d e6c5 953d
00000080: 594b 58bd 687c ad3c 74d3 983d d4f0 f7bc
00000090: 502f 173d 5808 213c e6cc adbd f291 a1bd
000000a0: 242a dc3c 0885 fd3c c663 ae3d c08c d2bb
000000b0: 9caf 3e3d 8066 5b3d 50e8 5e3d c1bf b7bd
000000c0: cc2f ab3d 0826 963c 0052 943a 9033 a5bd
000000d0: 6a9f 8e3d 14ba a33c c081 103b 1013 8e3b
000000e0: 5440 f93c 8cad 223d a044 1d3c 74eb 3fbd
000000f0: 08b6 7c3c 7c8c 863c 2083 473c 688f 733d
00000100: a0df 88bd c806 b93d 9438 a83d 2c8b dfbc
00000110: 22b2 a73d 6246 903d e06d 65bd bcb1 8f3d
00000120: 828c b43d 409f bebc 0550 a1bd 1ef1 9c3d
00000130: 66ed 47bd 11fc 06bd c043 94bc 60e5 b83d
00000140: ec18 a8bc c7d2 81bd 1e28 81bd 5892 7f3d
00000150: e0f6 cfbc 2435 d23c 6030 013b d069 9ebc
00000160: 4039 c8bc 18b6 97bc 00ab 383d 181b a43d
00000170: 586e d1bc 607e 7cbb 6783 3dbd 3ce5 853c
00000180: 0b27 a8bd c03d 7ebb 607c 10bd a0ee ad3c
00000190: 7092 303c 8682 82bd 5cba ebbc 44b6 433d
000001a0: 88b7 983d dc10 08bd 7066 d13b 605e 3f3b
000001b0: 200b 413d 10ce f6bb 309c ee3b 80a5 1abd
000001c0: 205c 8a3c 3cdb b6bd 1c62 a4bd 08be 353c
000001d0: 1a8b 8bbd eca4 283d 8c8e 913d c6ad 21bd
000001e0: 004a a039 d0f7 953d a08f f53c dc0e 1d3d
000001f0: 1a6a 27bd c51f b9bd 24bb 283d 0c75 db3c
00000200: a49b 6bbd 186c aa3c 5e91 a2bd a823 aabc
00000210: 795c 50bd 0000 5f39 fc0b 893d 45f9 14bd
00000220: 904c 673c e044 d03b c689 aa3d 903b a0bd
00000230: 5676 ba3d ff3c 43bd b07a a43b 17ca 0abd
00000240: 00e8 41bc d068 77bd b633 863d 7c68 973d
00000250: dec4 f8bc 4cac 913d ad68 2abd 34aa bebc
00000260: cc75 223d e462 753d d288 80bd e004 63bb
00000270: 0073 46ba c4ea 583d 8668 8ebd d426 823c
00000280: c13e 71bd ffdd 82bd 54bb 41bd 28ab dd3c
00000290: 3c68 193d efba b0bd 5cd3 56bd 048c 4b3d
000002a0: d237 b63d a06c 6b3d 6843 e93c d8bb b93c
000002b0: 27cb 00bd ceb7 a83d c0d1 03bb 00c3 ca3a
000002c0: e051 68bb 1e55 923d 73f9 39bd c92d 6ebd
000002d0: 1a9f 6cbd 4f8c 14bd d89b 0abc e0c9 f33b
000002e0: 80c3 ae3b a5b0 38bd f89e 84bc 2025 073c
000002f0: dc05 8c3d 8021 59bb c098 2d3c 3572 b2bd
00000300: 6036 c43c 4e7b 023d 56e6 a4bd f066 e63c
00000310: 58cf c63c 5c61 0d3d 300b dcbc 527f a63d
00000320: 1867 14bc 6278 8d3d c49d 233d 5ae6 80bd
00000330: 9c82 bd3c f6b8 893d cc09 85bc f7f7 2fbd
00000340: 401a 47bd 7f80 45bd b89c 563c bc5d c2bc
00000350: 3e76 4abd 4725 5ebd 8467 863d 48b3 6c3c
00000360: a8e2 283c 1eb9 30bd bcb2 a7bd 2841 1b3c
00000370: 7630 3abd 42e9 ad3d ccc7 643d 5674 973d
00000380: 684e fcbc b670 913d b2e4 83bd b0ad a6bc
00000390: 4ca1 903c c0f5 97bc 7486 a13c aeab 00bd
000003a0: f0af e83b 201d 583d 7f48 23bd f0bd c33b
000003b0: 45e3 8dbd cff5 40bd d99e 28bd fb90 01bd
000003c0: c00e 7f3b 4e09 79bd 4384 a5bd 4401 8fbd
000003d0: f06e 6c3c c7f9 b7bd f206 9d3d 082c 3dbd
000003e0: 0cc6 ab3d 9cf4 aa3c 2aac 21bd bc1f 84bc
000003f0: 00ef c83b 2861 213d 7a43 013d 6055 dabc
0.010991089 0.00611341 0.03956747 -0.073928274 -0.08249585 0.0705208 0.009345867 0.04663682
-0.07226895 -0.030763827 -0.06969145 0.08601062 -0.07618599 -0.0204271 -0.061116003 -0.0608847
-0.03301689 -0.0015152916 0.0707559 -0.059750274 0.02266395 -0.045282092 -0.054512553 0.05013068
-0.008857124 0.033811077 -0.0044381022 -0.06253494 0.08963333 0.06498143 0.04071939 0.07313137
-0.052806232 0.021177486 0.074622065 -0.030266203 0.036910355 0.009828649 -0.08486347 -0.07889165
0.026875563 0.030947223 0.08515124 -0.00642547 0.046554193 0.05356455 0.05442077 -0.08972121
0.08358726 0.018328682 0.0011315942 -0.080664754 0.069639996 0.01998619 0.0022049993 0.0043357685
0.030426182 0.03971629 0.009598881 -0.046855405 0.015424259 0.01642441 0.012177259 0.059462935
-0.06683278 0.090344965 0.082139164 -0.027288042 0.08188273 0.070446745 -0.056012988 0.07016322
0.08815862 -0.023269296 -0.07876591 0.07663177 -0.048810385 -0.032955233 -0.018098712 0.09028125
-0.020519696 -0.06339031 -0.0630648 0.062395424 -0.025386274 0.025660105 0.0019712672 -0.019337565
-0.024441361 -0.018519446 0.045084953 0.0801298 -0.025565311 -0.0038527474 -0.046267893 0.016344659
-0.08210572 -0.003879413 -0.035274863 0.02123195 0.010777101 -0.063725516 -0.028775387 0.047781244
0.07456881 -0.033219203 0.0063903853 0.002920054 0.04712975 -0.007531889 0.0072818026 -0.03775549
0.016889632 -0.089285344 -0.080265254 0.01109267 -0.06813641 0.041172907 0.07107267 -0.039472364
0.00030572712 0.07322657 0.029975712 0.03834425 -0.04087267 -0.09039263 0.041194096 0.02678921
-0.057521477 0.020803496 -0.07937883 -0.020768955 -0.05086944 0.00021266937 0.06691739 -0.036370534
0.014117375 0.006355867 0.083270594 -0.07823861 0.09104602 -0.047665592 0.0050195083 -0.033884134
-0.011835098 -0.06040269 0.06552832 0.07392976 -0.030367311 0.07112941 -0.041603733 -0.023274519
0.03966312 0.059908763 -0.062760964 -0.0034640357 -0.0007570237 0.052958265 -0.0695353 0.015887655
-0.058897737 -0.06389999 -0.04729779 0.027059153 0.03745292 -0.08629405 -0.05244766 0.049694076
0.08897366 0.05747664 0.028474525 0.022672579 -0.03144374 0.08238183 -0.0020114034 0.0015469491
-0.0035449192 0.07145141 -0.04540391 -0.058149133 -0.05776892 -0.03626662 -0.008460008 0.007439837
0.005333364 -0.045090336 -0.016189083 0.008248597 0.06837055 -0.003313154 0.0105955005 -0.087131895
0.02395171 0.031855874 -0.080517456 0.028125256 0.024268791 0.034516677 -0.026860803 0.08129753
-0.009057783 0.06907727 0.03994538 -0.06293936 0.023133568 0.067247316 -0.016240023 -0.042961087
-0.04860902 -0.048218247 0.013098888 -0.023726337 -0.04942917 -0.05423477 0.06562713 0.014447041
0.010307945 -0.04314529 -0.08188388 0.009475984 -0.045456372 0.08491756 0.055854604 0.07395236
-0.030799106 0.07101576 -0.064401045 -0.020346493 0.017655037 -0.0185498 0.019717433 -0.031413727
0.0071010515 0.05276215 -0.03986406 0.00597357 -0.06928114 -0.04710942 -0.041167114 -0.031632405
0.0038918704 -0.06079989 -0.080818675 -0.06982663 0.014430746 -0.08983188 0.0766734 -0.04618457
0.08387384 0.020868592 -0.03947083 -0.016128413 0.0061320066 0.039399296 0.03155849 -0.026652038

fc2.bias f4 [84]
00000000: 94ad 393d 00f5 b3bd 0669 a33d d85c 18bc
00000010: e800 323c 2033 5abc 5699 9b3d e8ad 86bc
00000020: 90d2 b43b 3832 163c d032 833d ec64 9e3c
00000030: 105d 623d fee3 6abd 9049 153c 5cb3 f8bc
00000040: e9ab 24bd 8819 0fbd 0170 55bd 5ad7 853d
00000050: c044 efbb ab90 94bd 1cd2 94bd 501c 643d
00000060: fcc7 9ebd 60b1 0fbc f8f7 5abd a6f2 8abd
00000070: 913e b8bd a4cd 3b3d 0821 8d3c a186 a1bd
00000080: 3cc1 563d 4853 0bbd 7795 75bd e0d1 9e3b
00000090: ae3b 70bd 80d7 42bb 4064 bfba 26a1 973d
000000a0: 2422 b6bc 7c88 b43c 7092 1d3c c86a 863c
000000b0: d507 67bd ebe3 53bd f8bc 7a3d 9082 8fbc
000000c0: 4c60 aebd dc6f a0bc 60b9 3dbc 7c5d 5c3d
000000d0: dcfc 5f3d d83a 223d a408 abbc 78b4 9b3d
000000e0: 1459 a0bd 3023 4e3c 30cd 553d c04c dabb
000000f0: bce8 e3bc 4392 9ebd c498 703d 0350 97bd
00000100: 584c 62bc ce75 5ebd b039 b63d 5db9 acbd
00000110: a861 173c 6004 f73b 5087 87bb 1040 683d
00000120: 853f 0cbd 0345 41bd d8a5 aabc 4023 973d
00000130: ec16 933d e270 7cbd 45c1 a7bd 741b 9c3c
00000140: 48dc 89bc ecff 53bd 135d adbd 93c0 43bd
0.045331553 -0.087869644 0.07979016 -0.009299479 0.010864474 -0.013317853 0.07597606 -0.016440347
0.005518265 0.0091672465 0.06406176 0.019335233 0.055264533 -0.057346337 0.009111777 -0.030358963
-0.04020301 -0.034936458 -0.05210877 0.06535216 -0.007301897 -0.07254156 -0.07266638 0.055691063
-0.07752988 -0.008770317 -0.053459138 -0.06784563 -0.089963086 0.04585041 0.017227665 -0.078870066
0.052430376 -0.03401497 -0.059956994 0.0048467964 -0.058650665 -0.0029730499 -0.001460202 0.074037835
-0.022233076 0.022037737 0.009617433 0.01640834 -0.056403954 -0.05173103 0.06121537 -0.017518312
-0.08514461 -0.019584589 -0.011579841 0.05380009 0.054684505 0.0396069 -0.020878144 0.07602781
-0.0782949 0.012581632 0.052197635 -0.0066619813 -0.027820937 -0.07742741 0.05873944 -0.07388308
-0.013812147 -0.054311566 0.08897722 -0.08433793 0.009239592 0.0075383633 -0.0041360036 0.05670172
-0.034240264 -0.047184955 -0.020831034 0.0737977 0.071821064 -0.06163109 -0.0819116 0.01905606
-0.016828671 -0.051757738 -0.08465018 -0.047791075

fc3.weight f4 [1, 84]
00000000: d86d 49bd e610 36bd 991e bebd 2eb0 38bd
00000010: 0b6f 7dbd 2a09 233d 354b ae3d ce3f 1d3d
00000020: 247a 94bd ca88 463d 4647 663d d2b0 373d
00000030: e0f1 d9bd 941d b23c 6ea3 6cbd 13c0 c93d
00000040: a4ad b2bd 78dc 283c 6965 cc3d fd58 b33d
00000050: 848c ef3c 17b0 923d 569a 6d3d 4169 a83d
00000060: 5363 a73d 1806 63bd 1d4e 5cbd 861c 333d
00000070: 0e0f 123d f049 69bc 98e6 f6bc bb76 c13d
00000080: 75d2 b13d 4682 37bd 3c5e 84bc ad74 b53d
00000090: b95d 9a3d 600e 5c3c 3315 9d3d 834a c13d
000000a0: 3e98 2a3d a66c 7e3d e147 8b3d faab 423d
000000b0: 86a2 6f3d 047e 71bd 6279 40bd ce76 1b3d
000000c0: 7b14 da3d 24fd 1fbd 7a93 43bd f0b2 c2bc
000000d0: 217c c7bd 0666 aabd 465d 9abd 7c03 8dbc
000000e0: d81e 35bc 00a9 89b9 1d1b b93d ed68 a63d
000000f0: e1e9 c13d 2030 f33b b09a b1bb f439 c9bd
00000100: 503b c3bc 8f59 ba3d ff4b d83d 73a4 c3bd
00000110: 1a73 5a3d f80e 3d3c bbce d4bd cc39 97bc
00000120: 40f0 90bb 39a1 bdbd af3f 983d bada 81bd
00000130: f9b8 db3d 5ee5 06bd 4227 27bd 4ae9 02bd
00000140: c13b be3d ca37 343d 666e b2bd a1ec 9c3d
-0.04917702 -0.04444971 -0.0928318 -0.045089893 -0.061873477 0.03980366 0.08510438 0.038390927
-0.07249859 0.048470296 0.056220315 0.044846363 -0.10641837 0.02174262 -0.057773046 0.098510884
-0.087245256 0.01030647 0.0998028 0.087572075 0.029241808 0.07162493 0.058008514 0.082232006
0.081732415 -0.055425733 -0.053785432 0.043728374 0.03565889 -0.0142388195 -0.030139253 0.09446474
0.086827196 -0.044801973 -0.016158216 0.08860145 0.075374074 0.013431162 0.07670059 0.0943804
0.041649096 0.062115334 0.06800819 0.04752729 0.058504604 -0.05895807 -0.04699076 0.037955098
0.106484376 -0.039059773 -0.047748066 -0.023766965 -0.097404726 -0.08320241 -0.07537322 -0.017213576
-0.011054717 -0.0002625659 0.090383746 0.08125482 0.09468437 0.0074215084 -0.0054200515 -0.09825507
-0.023831993 0.09099113 0.1056137 -0.095528506 0.053332426 0.011539213 -0.10390993 -0.018460177
-0.0044231713 -0.092592664 0.07434022 -0.06340547 0.1072864 -0.032933585 -0.040808924 -0.031960763
0.09288741 0.043998517 -0.08712463 0.07662321
