model/cnn_2.pt (torch, 799319 bytes, 6 tensors)

conv1.weight f4 [12, 1, 3, 3]
0	0xbcd82266	-0.02638359
1	0xbe276dbb	-0.16350453
2	0xbea77949	-0.3270972
3	0x3e94d05f	0.29065225
4	0x3d018e37	0.031629767
5	0x3e488900	0.19583511
6	0x3e61bf18	0.22045553
7	0xbdd819f9	-0.10551829
8	0xbd9dc094	-0.07702747
9	0x3e804e59	0.25059775
10	0xbe0501db	-0.12988989
11	0x3c071e56	0.008246979
12	0x3e3773f0	0.1791532
13	0x3e9e0fcf	0.30871436
14	0xbe6df467	-0.23237763
15	0x3d98c3e7	0.074592404
16	0xbea8599e	-0.32880872
17	0xbe94ca85	-0.2906076
18	0xbe879bba	-0.26485997
19	0xbe8bafb7	-0.27282497
20	0xbcaca5ef	-0.021075217
21	0x3e812598	0.25223994
22	0xbe5dfe45	-0.21679027
23	0x3e83724c	0.2567314
24	0x3e92c45a	0.2866543
25	0xbe3fa8b5	-0.187167
26	0xbd8ba80f	-0.06819164
27	0x3e43dd0a	0.19127288
28	0x3e8af6fb	0.27141556
29	0xbe17302a	-0.14764467
30	0xbe5cb753	-0.21554308
31	0x3e9373e9	0.2879937
32	0xbd0eab5d	-0.034831394
33	0xbe44cbf1	-0.19218422
34	0x3d715889	0.058922324
35	0xbe0827cd	-0.13296433
36	0x3db1b993	0.086779736
37	0x3cdeeb4d	0.02721181
38	0x3d687201	0.056749348
39	0x3e344d5c	0.17607635
40	0x3e1adb56	0.15122733
41	0xbeaa0c86	-0.3321268
42	0x3ea206d4	0.31645834
43	0x3ea2ef82	0.31823355
44	0xbe181c3d	-0.14854522
45	0xbe10259f	-0.14076851
46	0x3e22f615	0.15914185
47	0x3e30db3b	0.1727113
48	0x3e8b2a16	0.27180547
49	0x3e84ce0a	0.25938445
50	0x3dd28450	0.10279143
51	0x3e638e09	0.22222151
52	0x3e56469b	0.20925371
53	0xbcaa3258	-0.020775959
54	0xbc455c34	-0.012045909
55	0x3e48e24f	0.1961758
56	0x3e6be116	0.23035082
57	0x3e1971aa	0.14984766
58	0x3e6aeda8	0.22942221
59	0x3ea73ba8	0.32662702
60	0x3dc1ec59	0.09468908
61	0x3e83ede7	0.25767443
62	0x3e771c77	0.24131952
63	0x3de97d4d	0.11400852
64	0xbdd24233	-0.10266533
65	0x3e401d4c	0.18761176
66	0x3b9ec76f	0.0048455517
67	0xbd6a9658	-0.057272285
68	0xbe9c474f	-0.30523154
69	0xbe1b59e3	-0.15171008
70	0xbd7817c9	-0.06056956
71	0x3d3dabe7	0.046306517
72	0xbe51b191	-0.20477892
73	0x3d8f12f1	0.06986035
74	0x3e7e9850	0.2486279
75	0xbea1574e	-0.3151192
76	0xbd42ed9c	-0.047589883
77	0x3e9b0f3e	0.30285066
78	0x3d0c716d	0.03428786
79	0xbe830483	-0.2558938
80	0x3dcf9e96	0.1013767
81	0x3df7fc44	0.12108663
82	0x3e201138	0.15631568
83	0x3e550473	0.20802478
84	0xbe4eae04	-0.20183569
85	0xbe398d80	-0.18120384
86	0x3e927ed1	0.28612378
87	0xbe86654d	-0.2624916
88	0x3bd31d3b	0.0064426935
89	0xbdffdb1c	-0.12492964
90	0x3e98f0b1	0.29871133
91	0x3e04d190	0.12970567
92	0x3e537048	0.206483
93	0x3e8f197f	0.2794914
94	0x3de93b7a	0.113882974
95	0xbe895dca	-0.26829368
96	0xbea8a2a9	-0.329366
97	0x3b86d906	0.0041152267
98	0xbe1a9646	-0.15096387
99	0xbeac377f	-0.3363609
100	0x3e648a62	0.22318414
101	0xbe1a1e6b	-0.15050666
102	0x3caeafab	0.021324
103	0x3db13a40	0.086536884
104	0x3e8320de	0.25611013
105	0xbe5600b0	-0.208987
106	0x3e9e0f65	0.3087112
107	0x3eb157d1	0.3463731

conv1.bias f4 [12]
0	0x3e27e48f	0.16395782
1	0x3e550bd4	0.20805293
2	0x3d5975a4	0.053090706
3	0x3e6ec170	0.23315978
4	0xbdd0d870	-0.10197532
5	0xbe2622be	-0.1622419
6	0x3df7d504	0.121011764
7	0x3dab1a8d	0.083546735
8	0x3d3edda0	0.046598077
9	0xbce13023	-0.027488774
10	0xbdc1cade	-0.09462522
11	0x3ba8b614	0.0051486585

conv2.weight f4 [24, 12, 3, 3]
0	0xbd6c0368	-0.057620436
1	0x3d987bea	0.0744551
2	0x3ca4378f	0.020046024
3	0x3d788aa3	0.06067909
4	0x3d3c90d8	0.04603657
5	0x3db38677	0.087658815
6	0x3b35bada	0.002772978
7	0x3d52d1ae	0.051469497
8	0x3db3fcc5	0.08788446
9	0x3ca7712c	0.020439707
10	0xbd30fa71	-0.04320759
11	0xbd9178d5	-0.07103125
12	0x3d1aa481	0.03775454
13	0xbc5a7e4c	-0.013335776
14	0x3bd135b2	0.006384575
15	0x3dbb8a8a	0.091572836
16	0x3d157fad	0.036498714
17	0xbbec76bd	-0.007216303
18	0x3da9e5ff	0.082958214
19	0x3dbd4a73	0.09242716
20	0x3c894bfc	0.016759865
21	0xbd7de58b	-0.061986487
22	0xbcf992ac	-0.030465446
23	0x3dcfd160	0.10147357
24	0x3cddc751	0.02707258
25	0x3d8c9438	0.06864208
26	0xbc84466f	-0.016146867
27	0xbd572632	-0.05252666
28	0xbdadc658	-0.08485097
29	0x3c258b4f	0.010104015
30	0xbd3f88c1	-0.046761278
31	0xbd940b5d	-0.0722873
32	0x3b363fb8	0.0027808975
33	0xbcae12df	-0.021249233
34	0x3d612997	0.054971304
35	0xbd8c6257	-0.06854694
36	0x3d2c63d1	0.04208738
37	0xbda30dec	-0.0796164
38	0x3d505ef2	0.050871797
39	0xbda8f4a1	-0.08249784
40	0xbdb8305b	-0.08993598
41	0xbca85230	-0.020547003
42	0x3d9c6339	0.07636113
43	0x3cd4f1f1	0.025994273
44	0x3da28d10	0.07937062
45	0xbda98fc5	-0.08279375
46	0xbdafbd55	-0.08581034
47	0xbdc484ca	-0.0959564
48	0x3d9fc4ae	0.078011855
49	0xbd2a5047	-0.041580465
50	0x3c44b438	0.012005858
51	0x3d94262e	0.07233845
52	0x3caef87d	0.021358723
53	0x3ce4bd60	0.027922332
54	0xbcaf7d0d	-0.021421934
55	0x3dade00a	0.08489998
56	0x3caca82f	0.02107629
57	0x3dac3200	0.08407974
58	0xbca820d2	-0.020523462
59	0xbd14e9af	-0.03635567
60	0x3d981923	0.074266694
61	0xbd5c5221	-0.05378926
62	0xbda046fc	-0.07826039
63	0x3d70b689	0.05876783
64	0x3d0cb674	0.03435369
65	0xbb58682a	-0.003302107
66	0x3b7bf10d	0.0038443238
67	0xbd095dda	-0.03353677
68	0x3d8afafd	0.067861535
69	0xbbf9e94c	-0.007626688
70	0xbddc65d2	-0.10761608
71	0xbd9b8b29	-0.07594902
72	0x3ca86d6d	0.02055999
73	0x3dcc7ac1	0.09984351
74	0xbce874c3	-0.028375989
75	0xbdb1d1f1	-0.08682621
76	0xbc50af58	-0.012737118
77	0x3cae8a1f	0.021306096
78	0x3dd3559b	0.10319062
79	0x3d31ffe5	0.04345693
80	0xbc6ea5d3	-0.014565903
81	0xbd385726	-0.045004986
82	0xbd76991b	-0.060204607
83	0x3cf5bb66	0.029996585
84	0x3d03d7b4	0.032188132
85	0x3d978209	0.07397849
86	0x3c9fb1e2	0.019494
87	0x3d899004	0.06716922
88	0x3cb39239	0.02192031
89	0x3c78bb70	0.015181407
90	0x3dc03851	0.093857415
91	0x3d98cfcb	0.07461508
92	0xbc9721d9	-0.018448757
93	0xbd4f91e6	-0.05067625
94	0xbd8ce766	-0.06880073
95	0x3d83048e	0.06397353
96	0x3d37e131	0.044892494
97	0xbc7a0cce	-0.015261842
98	0x3d0e0f7d	0.03468274
99	0xbce45370	-0.027871817
100	0xbb91b409	-0.0044465107
101	0xbdae9019	-0.08523578
102	0xbd54e680	-0.051977634
103	0x3d32e3ee	0.043674402
104	0xbd02c134	-0.031922534
105	0xbd9026c1	-0.07038642
106	0xbd9ab1ad	-0.0755342
107	0x3dcf840f	0.1013261
108	0x3ca76893	0.020435607
109	0xbdbe1341	-0.09281016
110	0x3dd9c42f	0.10633122
111	0xbdabfc50	-0.08397734
112	0x3d92833c	0.07153937
113	0xbd759c96	-0.059963785
114	0xbd91e33b	-0.07123419
115	0xbdb64d73	-0.08901491
116	0xbc90761f	-0.01763445
117	0x3d03ffdc	0.03222643
118	0xbc023efe	-0.007949589
119	0xbc7d0ad4	-0.015444476
120	0x3da4159b	0.080119334
121	0xbd8386d3	-0.064222
122	0x3c7d2b79	0.015452259
123	0x3da551d8	0.08072251
124	0xbdb770e2	-0.089570776
125	0x3d4cd5ed	0.050008703
126	0x3d6da44a	0.058018006
127	0xbc9fb27a	-0.019494284
128	0xbba86b35	-0.005139733
129	0x3d82522f	0.063633315
130	0x3c8cc4fa	0.01718377
131	0xbd75e9a6	-0.060037278
132	0x3c8b7d8f	0.017027644
133	0x3d40b3b9	0.047046397
134	0x3d943e33	0.07238426
135	0xbd2fc7f6	-0.042915307
136	0xbd57aff8	-0.05265805
137	0xbd90fc30	-0.07079351
138	0x3cbafdf7	0.022826178
139	0xbb7ce5fe	-0.0038589234
140	0x3dadb91d	0.08482573
141	0xbb641be3	-0.003480666
142	0xbd6bc54a	-0.057561196
143	0xbda91aa2	-0.08257033
144	0xbd7cf360	-0.061755538
145	0xbd82d1f5	-0.063877024
146	0x3d6b6333	0.05746765
147	0x3dd8bd7f	0.105830185
148	0xbcbda0b8	-0.023147926
149	0x3d8d7370	0.069067836
150	0xbd1a14e9	-0.037617598
151	0x3dbb7789	0.09153659
152	0xbc2533d2	-0.010083156
153	0x3d5b0801	0.05347443
154	0x3d3f6c0b	0.046733897
155	0xbd69a5b0	-0.057042778
156	0xbd84ce9f	-0.06484722
157	0x3d53e823	0.051735055
158	0xbc2f3428	-0.010693587
159	0x3d9a15dc	0.075237006
160	0x3d8432b2	0.06454982
161	0x3d662567	0.056188013
162	0x3d147ec9	0.036253724
163	0xbd967ae7	-0.073476605
164	0xbdc0c364	-0.09412268
165	0xbba66b26	-0.005078691
166	0x3d4b69ee	0.04966157
167	0x3c25c253	0.010117131
168	0xbda6111c	-0.08108732
169	0xbcca0baa	-0.024663765
170	0xbcb55424	-0.022134848
171	0xbc474363	-0.012162062
172	0x3d33eccb	0.043926995
173	0xbd07dbb6	-0.033168517
174	0x3d511be2	0.05105198
175	0x3cac3223	0.02102
176	0xbdc3a4ab	-0.09552892
177	0xbb44bdb9	-0.003002031
178	0xbd81b9ed	-0.06334291
179	0x3c8e1c69	0.017347531
180	0x3d9e8bfc	0.07741544
181	0x3d92700d	0.07150278
182	0xbdfa6387	-0.122260146
183	0x3db3f2e8	0.08786565
184	0x3d83c79b	0.06434556
185	0xbdd4bc6b	-0.103875004
186	0x3c8eb81b	0.017421773
187	0xbd8c01bb	-0.068362676
188	0xbd956c71	-0.07296074
189	0xbd68227b	-0.05667351
190	0x3db74786	0.08949189
191	0x3b6de8ef	0.003630217
192	0x3d371c40	0.044704676
193	0x3d9a5bdc	0.07537052
194	0xbd46628d	-0.04843383
195	0xbc0c5616	-0.008565446
196	0x3db8638b	0.09003361
197	0xbd968073	-0.073487185
198	0x3d1727f2	0.03690333
199	0x3d1e6f2f	0.03868025
200	0xbc195949	-0.009359666
201	0xbc85d898	-0.016338632
202	0x3d31593e	0.043298
203	0x3d7b91de	0.061418407
204	0x3d4e035d	0.050296176
205	0xbc3bf9e5	-0.011473154
206	0xbd879984	-0.06621078
207	0x3cf00cfd	0.029303068
208	0x3d7b751e	0.06139099
209	0x3c9052c8	0.017617598
210	0xbc240d20	-0.010012895
211	0x3d87e12a	0.066347435
212	0xbdbeaf4f	-0.09310781
213	0xbd8e046a	-0.06934436
214	0x3d58833d	0.052859534
215	0x3b8459e9	0.0040390384
216	0xbd6202c2	-0.05517841
217	0xbce41c30	-0.027845472
218	0x3d7dee88	0.06199506
219	0xbd9b46ed	-0.075818874
220	0x3d130e4c	0.035902306
221	0x3d6b8055	0.057495434
222	0x3d8090fb	0.06277653
223	0xbb8c30d5	-0.004278282
224	0xbd01e503	-0.031712543
225	0x3d916528	0.07099372
226	0x3d4afd56	0.049558006
227	0x3c177b8f	0.009245767
228	0x3d9e5cf1	0.07732571
229	0xbd5dc278	-0.054140538
230	0x3dc520b7	0.096253805
231	0x3d4f93c6	0.050678037
232	0x3d1712e5	0.036883254
233	0x3da71797	0.08158796
234	0xbc388f18	-0.011264585
235	0xbc0292f9	-0.007969611
236	0xbcdba1f0	-0.026810616
237	0x3d71c1b2	0.059022613
238	0x3d78a524	0.060704365
239	0x3d9877f8	0.07444757
240	0x3dad6c98	0.08467978
241	0x3d591864	0.053001776
242	0x3dc1532d	0.09439693
243	0xbd7d14c4	-0.06178738
244	0x3dad7cab	0.08471044
245	0x3d9be60a	0.07612236
246	0xbdcfb484	-0.101418525
247	0xbd1ada71	-0.03780598
248	0x3b8a8c01	0.0042281155
249	0xbd82e6ad	-0.06391654
250	0xbd0c8a61	-0.034311656
251	0xbd1ec51e	-0.038762204
252	0x3b1bea6b	0.0023790847
253	0x3db21576	0.086954996
254	0xbcbd3c94	-0.023100175
255	0x3d30cc9b	0.043163877

conv2.bias f4 [24]
0	0x3d8011c5	0.06253389
1	0xbd03c945	-0.032174367
2	0x3c9e195e	0.019299205
3	0x3c74d969	0.014944413
4	0xbdb97ce2	-0.09057023
5	0xbc4c0e15	-0.012454529
6	0xbd2f32ca	-0.042773046
7	0x3da501f9	0.08057017
8	0x3d9efe57	0.07763355
9	0x3d8812f2	0.066442385
10	0x3d56e2ce	0.05246239
11	0xbd748006	-0.059692405
12	0x3d8e8dfc	0.06960675
13	0xbd9d2546	-0.07673125
14	0xbdb26c1f	-0.08712029
15	0x3c6e05ce	0.014527751
16	0xbd737015	-0.05943306
17	0x3c44c8c5	0.012010758
18	0xbd255488	-0.04036382
19	0xbdad11fe	-0.08450697
20	0xbcbc56c1	-0.022990586
21	0xbcfd13a6	-0.030893158
22	0xbcc86db8	-0.02446638
23	0x3d98be58	0.0745818

fc.weight f4 [2, 98304]
0	0x3bde9da0	0.0067936927
1	0x3bb7461b	0.005593074
2	0x3bd6c91f	0.006554737
3	0x3b30d826	0.0026984303
4	0xba714d54	-0.0009204943
5	0xbba6c0f3	-0.0050889193
6	0x3a947545	0.0011326453
7	0xbb453a2f	-0.0030094495
8	0xbbba4e03	-0.0056855693
9	0x3baaae20	0.0052087456
10	0x3b9d30e1	0.0047970866
11	0xbb675a53	-0.003530164
12	0x399601e4	0.00028611638
13	0xba5eb743	-0.0008495936
14	0x3a92541c	0.0011163983
15	0x3aa3cff0	0.0012497883
16	0x3b11b9eb	0.002223606
17	0xbb8236a0	-0.003973797
18	0xba2a0541	-0.0006485768
19	0x3a709b48	0.0009178412
20	0xbb41d9e5	-0.0029579338
21	0xba4693e0	-0.00075751357
22	0xba6ed99a	-0.00091114047
23	0x3b9cb807	0.00478268
24	0x3a86fec3	0.0010299314
25	0x3b6baa13	0.0035959526
26	0x3b15daed	0.0022866086
27	0x3a83025f	0.0009995213
28	0xba7b6472	-0.00095898577
29	0x3b047182	0.0020209257
30	0x3b7fff81	0.0039062204
31	0xbb0cc705	-0.002148093
32	0xbaab25ef	-0.001305757
33	0xbb9edee7	-0.0048483494
34	0x3b838e1e	0.0040147444
35	0x3bb4b9dc	0.00551532
36	0xbb16ec6f	-0.002302911
37	0x397f683e	0.00024357528
38	0x3a735cc1	0.0009283536
39	0xb9fc15e6	-0.000480815
40	0x3ba0c7c5	0.004906627
41	0x3b90a96e	0.004414729
42	0xbb030a7a	-0.0019995258
43	0x3acb8823	0.0015528243
44	0x3a8573d6	0.0010181617
45	0x3ab99461	0.00141586
46	0xbbbd3e59	-0.0057752547
47	0xbb70e861	-0.0036759602
48	0x386b9389	5.616577e-05
49	0x3b029ccc	0.0019929884
50	0xbb811793	-0.003939578
51	0xbb9a5b88	-0.0047106184
52	0xbafe8e2c	-0.0019421033
53	0x3b2cc379	0.0026361628
54	0xba0599ac	-0.0005096446
55	0x39f42530	0.00046567013
56	0x3b1b813b	0.002372815
57	0xba1ebab6	-0.0006055044
58	0x38b4c980	8.620601e-05
59	0xbaa40e5f	-0.001251649
60	0xbaff66d7	-0.0019485605
61	0x3a33e14a	0.0006861879
62	0xb98d54de	-0.00026956847
63	0x3babd35e	0.005243703
64	0xba2cd927	-0.00065936375
65	0x39f2d3d7	0.0004631567
66	0x3b8f2ee4	0.0043696035
67	0x3c10d769	0.00884042
68	0x3b7b3baa	0.0038335123
69	0x3b9ddf2d	0.0048178644
70	0x3a7de35a	0.0009685062
71	0x38dbf336	0.00010488035
72	0x3b5be9bd	0.0033556067
73	0xbb2d2b04	-0.0026423344
74	0x3b50308b	0.0031767215
75	0xbb119b57	-0.0022217834
76	0x3ae81b7d	0.0017708387
77	0x3b14863c	0.0022663018
78	0x3ab85ba0	0.0014065392
79	0xbb14ecb7	-0.00227241
80	0x383b35ab	4.4634256e-05
81	0x39bb0d7d	0.0003567747
82	0x3a83760f	0.0010029691
83	0xbbcf09b3	-0.006318295
84	0xb9e4e756	-0.00043659908
85	0xbae0e22f	-0.0017157252
86	0x3a82a595	0.000996756
87	0xbb2b16ec	-0.0026106192
88	0xba058aa5	-0.0005094207
89	0xbaa85b7b	-0.0012844646
90	0xbba4b489	-0.0050264043
91	0xbae502bf	-0.0017472132
92	0x3a71ec28	0.00092286104
93	0xbb33ba53	-0.002742429
94	0xbb43e478	-0.0029890817
95	0xbbd5ddc8	-0.0065266825
96	0xbb4b9a63	-0.0031067363
97	0x3b7aef3a	0.0038289563
98	0x3ab010bc	0.0013432722
99	0xbb81633d	-0.0039485977
100	0xb9179504	-0.00014455995
101	0x3b7aabec	0.0038249446
102	0xba7aecb2	-0.00095720135
103	0xbaa9ecaa	-0.0012964208
104	0xbb1764ad	-0.002310078
105	0x3bcac0aa	0.006187518
106	0xb93fe07c	-0.00018298806
107	0x3b27a27a	0.0025579021
108	0x3b5adb54	0.003339489
109	0xbb76a502	-0.0037634973
110	0x3a86c0cc	0.0010280847
111	0xbb3a7bfd	-0.002845525
112	0xba375d64	-0.0006994812
113	0x3b844b12	0.0040372694
114	0x3b3d2685	0.002886207
115	0xbb894c7a	-0.004190025
116	0x3aafda15	0.0013416434
117	0xbb951043	-0.0045490577
118	0x3af82710	0.001893254
119	0x3b864b42	0.004098327
120	0x3b25f4ff	0.002532303
121	0x3a613da4	0.0008592254
122	0xbbbd6612	-0.00577999
123	0x39d84879	0.00041252727
124	0xba9a8285	-0.0011788165
125	0x3b250370	0.002517905
126	0x3ae2ae99	0.0017294466
127	0x3b13448d	0.002247128
128	0x3be6bf12	0.0070418203
129	0x3ae22cb6	0.0017255757
130	0xbb9e72e2	-0.0048354724
131	0xb995c1fc	-0.00028564024
132	0x39f258e5	0.00046224069
133	0xbb411bbf	-0.0029466
134	0x3b31d45c	0.0027134633
135	0xbb7dd430	-0.003873121
136	0xbabf6ea3	-0.0014605116
137	0xba876c13	-0.0010331891
138	0xba8cdff4	-0.0010747896
139	0x39ab1070	0.00032627909
140	0xbb8277a2	-0.0039815465
141	0x3bc81f69	0.00610726
142	0x3b0f9182	0.0021906798
143	0xbbac12f1	-0.0052512814
144	0x3aa4042d	0.0012513452
145	0xb9fa4a8a	-0.00047739252
146	0xbb38f401	-0.002822161
147	0x3b240595	0.0025027741
148	0xbb8dfa56	-0.004332821
149	0xbb0a4fcf	-0.0021104699
150	0x3bae4134	0.0053178314
151	0x3a03477b	0.0005007905
152	0xbab5bb0b	-0.0013864947
153	0x3b071144	0.0020609656
154	0xbb92ecf7	-0.004483815
155	0xbabb269a	-0.0014278472
156	0xba1f9525	-0.0006087593
157	0x3bbdc56e	0.0057913577
158	0x3961bbe5	0.00021527668
159	0xba859571	-0.0010191632
160	0xbb3406bd	-0.0027469837
161	0xbb12396e	-0.0022312063
162	0xbb654a02	-0.003498674
163	0xbb4ca8d6	-0.0031228564
164	0xba158b99	-0.00057047006
165	0xbb5192a0	-0.0031978264
166	0x3ae121c7	0.0017176204
167	0xbbb084be	-0.005386918
168	0xbb0bd066	-0.0021333932
169	0x3ab82e1f	0.0014051831
170	0xbb0f2e69	-0.002184773
171	0x3bb6d4d6	0.0055795712
172	0xba58be98	-0.0008268147
173	0xba086838	-0.0005203518
174	0x3b47e01a	0.0030498565
175	0x3a822445	0.0009929022
176	0x3b3475f8	0.0027536135
177	0xba92bdfb	-0.0011195535
178	0x3b82c97d	0.0039913044
179	0xbaa4d52f	-0.0012575741
180	0x3b2f7ee0	0.0026778504
181	0xba12ba0b	-0.00055971806
182	0x3b656584	0.0035003135
183	0xbb3bb944	-0.0028644362
184	0x3b1946aa	0.0023388066
185	0xbb0ab541	-0.0021165165
186	0x3a158508	0.0005703722
187	0x39526e0e	0.00020068159
188	0xbbbb6b4f	-0.0057195793
189	0x3b5546d2	0.0032543433
190	0x3a288397	0.00064283
191	0x3ba90883	0.0051584854
192	0xba2681b5	-0.00063517253
193	0x3b0b73b8	0.002127869
194	0xb9dece21	-0.00042496718
195	0xbb901e33	-0.0043981313
196	0x3a1b289a	0.0005918831
197	0xbb8272bc	-0.0039809626
198	0x3af0b95f	0.0018365792
199	0x3bb15e76	0.005412872
200	0xbb88945c	-0.0041680764
201	0xbba40cc0	-0.0050064027
202	0x3b033583	0.002002091
203	0xbbaf8ce6	-0.0053573726
204	0xbaaf1711	-0.0013358315
205	0x3b19ec3b	0.0023486752
206	0xba9d6299	-0.0012007534
207	0xbae02920	-0.00171021
208	0xbb171b9a	-0.0023057223
209	0x3b1a4492	0.0023539406
210	0xbb04542c	-0.0020191772
211	0x3a881de6	0.0010384887
212	0x36bdbfc4	5.6549634e-06
213	0x3b4c187e	0.0031142528
214	0xbae9e185	-0.0017843699
215	0x399937d9	0.00029224044
216	0xbae11a2f	-0.0017173941
217	0xbbbb164a	-0.005709444
218	0x3b79b406	0.0038101687
219	0x3a13dddb	0.0005640664
220	0xbb12529e	-0.0022327076
221	0xbb4474da	-0.0029976876
222	0xbb09073a	-0.0020908848
223	0x39b61c9b	0.00034735058
224	0xbb2850c5	-0.0025682908
225	0xbbd81ea5	-0.00659545
226	0xb8c17bed	-9.22604e-05
227	0xba72cecf	-0.0009262384
228	0xbbb86e70	-0.0056283996
229	0xbb1d1972	-0.0023971465
230	0xba1beeba	-0.0005948354
231	0xbb396475	-0.0028288637
232	0xb821a63e	-3.8540216e-05
233	0xbb8224b0	-0.0039716586
234	0xbb759a76	-0.00374761
235	0xbb0c17a8	-0.0021376405
236	0x3a07a643	0.0005174616
237	0xbb0e27e0	-0.0021691248
238	0xbad470a2	-0.0016207884
239	0x3ab42123	0.0013742786
240	0x3a0f4615	0.000546546
241	0xbb361da8	-0.0027788673
242	0x3aef9ff4	0.0018281923
243	0xbae2cf0c	-0.0017304136
244	0xbb4b99f6	-0.003106711
245	0xbba06b41	-0.004895598
246	0xbb3e874b	-0.002907234
247	0x39bb575d	0.0003573251
248	0x3a9bb717	0.0011880127
249	0x3b62f6f9	0.003463207
250	0xbb38a203	-0.0028172738
251	0xbb358508	-0.00276977
252	0xbb132e15	-0.0022457887
253	0xba3bd7f5	-0.0007165664
254	0xbbae829f	-0.00532563
255	0x3a1d1044	0.00059914985

fc.bias f4 [2]
0	0xba57743e	-0.00082189206
1	0xbad05f53	-0.001589755
